{
    "format": "layers-model",
    "generatedBy": "keras v2.6.0",
    "convertedBy": "TensorFlow.js Converter v3.21.0",
    "modelTopology": {
        "keras_version": "2.6.0",
        "backend": "tensorflow",
        "model_config": {
            "class_name": "Functional",
            "config": {
                "name": "model",
                "layers": [
                    {
                        "class_name": "InputLayer",
                        "config": {
                            "batch_input_shape": [
                                null,
                                224,
                                224,
                                3
                            ],
                            "dtype": "float32",
                            "sparse": false,
                            "ragged": false,
                            "name": "input_1"
                        },
                        "name": "input_1",
                        "inbound_nodes": []
                    },
                    {
                        "class_name": "Conv2D",
                        "config": {
                            "name": "stem_conv1",
                            "trainable": false,
                            "dtype": "float32",
                            "filters": 32,
                            "kernel_size": [
                                3,
                                3
                            ],
                            "strides": [
                                2,
                                2
                            ],
                            "padding": "valid",
                            "data_format": "channels_last",
                            "dilation_rate": [
                                1,
                                1
                            ],
                            "groups": 1,
                            "activation": "linear",
                            "use_bias": false,
                            "kernel_initializer": {
                                "class_name": "HeNormal",
                                "config": {
                                    "seed": null
                                }
                            },
                            "bias_initializer": {
                                "class_name": "Zeros",
                                "config": {}
                            },
                            "kernel_regularizer": null,
                            "bias_regularizer": null,
                            "activity_regularizer": null,
                            "kernel_constraint": null,
                            "bias_constraint": null
                        },
                        "name": "stem_conv1",
                        "inbound_nodes": [
                            [
                                [
                                    "input_1",
                                    0,
                                    0,
                                    {}
                                ]
                            ]
                        ]
                    },
                    {
                        "class_name": "BatchNormalization",
                        "config": {
                            "name": "stem_bn1",
                            "trainable": false,
                            "dtype": "float32",
                            "axis": [
                                3
                            ],
                            "momentum": 0.9997,
                            "epsilon": 0.001,
                            "center": true,
                            "scale": true,
                            "beta_initializer": {
                                "class_name": "Zeros",
                                "config": {}
                            },
                            "gamma_initializer": {
                                "class_name": "Ones",
                                "config": {}
                            },
                            "moving_mean_initializer": {
                                "class_name": "Zeros",
                                "config": {}
                            },
                            "moving_variance_initializer": {
                                "class_name": "Ones",
                                "config": {}
                            },
                            "beta_regularizer": null,
                            "gamma_regularizer": null,
                            "beta_constraint": null,
                            "gamma_constraint": null
                        },
                        "name": "stem_bn1",
                        "inbound_nodes": [
                            [
                                [
                                    "stem_conv1",
                                    0,
                                    0,
                                    {}
                                ]
                            ]
                        ]
                    },
                    {
                        "class_name": "Activation",
                        "config": {
                            "name": "activation",
                            "trainable": false,
                            "dtype": "float32",
                            "activation": "relu"
                        },
                        "name": "activation",
                        "inbound_nodes": [
                            [
                                [
                                    "stem_bn1",
                                    0,
                                    0,
                                    {}
                                ]
                            ]
                        ]
                    },
                    {
                        "class_name": "Conv2D",
                        "config": {
                            "name": "reduction_conv_1_stem_1",
                            "trainable": false,
                            "dtype": "float32",
                            "filters": 11,
                            "kernel_size": [
                                1,
                                1
                            ],
                            "strides": [
                                1,
                                1
                            ],
                            "padding": "same",
                            "data_format": "channels_last",
                            "dilation_rate": [
                                1,
                                1
                            ],
                            "groups": 1,
                            "activation": "linear",
                            "use_bias": false,
                            "kernel_initializer": {
                                "class_name": "HeNormal",
                                "config": {
                                    "seed": null
                                }
                            },
                            "bias_initializer": {
                                "class_name": "Zeros",
                                "config": {}
                            },
                            "kernel_regularizer": null,
                            "bias_regularizer": null,
                            "activity_regularizer": null,
                            "kernel_constraint": null,
                            "bias_constraint": null
                        },
                        "name": "reduction_conv_1_stem_1",
                        "inbound_nodes": [
                            [
                                [
                                    "activation",
                                    0,
                                    0,
                                    {}
                                ]
                            ]
                        ]
                    },
                    {
                        "class_name": "BatchNormalization",
                        "config": {
                            "name": "reduction_bn_1_stem_1",
                            "trainable": false,
                            "dtype": "float32",
                            "axis": [
                                3
                            ],
                            "momentum": 0.9997,
                            "epsilon": 0.001,
                            "center": true,
                            "scale": true,
                            "beta_initializer": {
                                "class_name": "Zeros",
                                "config": {}
                            },
                            "gamma_initializer": {
                                "class_name": "Ones",
                                "config": {}
                            },
                            "moving_mean_initializer": {
                                "class_name": "Zeros",
                                "config": {}
                            },
                            "moving_variance_initializer": {
                                "class_name": "Ones",
                                "config": {}
                            },
                            "beta_regularizer": null,
                            "gamma_regularizer": null,
                            "beta_constraint": null,
                            "gamma_constraint": null
                        },
                        "name": "reduction_bn_1_stem_1",
                        "inbound_nodes": [
                            [
                                [
                                    "reduction_conv_1_stem_1",
                                    0,
                                    0,
                                    {}
                                ]
                            ]
                        ]
                    },
                    {
                        "class_name": "Activation",
                        "config": {
                            "name": "activation_1",
                            "trainable": false,
                            "dtype": "float32",
                            "activation": "relu"
                        },
                        "name": "activation_1",
                        "inbound_nodes": [
                            [
                                [
                                    "reduction_bn_1_stem_1",
                                    0,
                                    0,
                                    {}
                                ]
                            ]
                        ]
                    },
                    {
                        "class_name": "Activation",
                        "config": {
                            "name": "activation_3",
                            "trainable": false,
                            "dtype": "float32",
                            "activation": "relu"
                        },
                        "name": "activation_3",
                        "inbound_nodes": [
                            [
                                [
                                    "stem_bn1",
                                    0,
                                    0,
                                    {}
                                ]
                            ]
                        ]
                    },
                    {
                        "class_name": "ZeroPadding2D",
                        "config": {
                            "name": "separable_conv_1_pad_reduction_left1_stem_1",
                            "trainable": false,
                            "dtype": "float32",
                            "padding": [
                                [
                                    2,
                                    2
                                ],
                                [
                                    2,
                                    2
                                ]
                            ],
                            "data_format": "channels_last"
                        },
                        "name": "separable_conv_1_pad_reduction_left1_stem_1",
                        "inbound_nodes": [
                            [
                                [
                                    "activation_1",
                                    0,
                                    0,
                                    {}
                                ]
                            ]
                        ]
                    },
                    {
                        "class_name": "ZeroPadding2D",
                        "config": {
                            "name": "separable_conv_1_pad_reduction_right1_stem_1",
                            "trainable": false,
                            "dtype": "float32",
                            "padding": [
                                [
                                    3,
                                    3
                                ],
                                [
                                    3,
                                    3
                                ]
                            ],
                            "data_format": "channels_last"
                        },
                        "name": "separable_conv_1_pad_reduction_right1_stem_1",
                        "inbound_nodes": [
                            [
                                [
                                    "activation_3",
                                    0,
                                    0,
                                    {}
                                ]
                            ]
                        ]
                    },
                    {
                        "class_name": "SeparableConv2D",
                        "config": {
                            "name": "separable_conv_1_reduction_left1_stem_1",
                            "trainable": false,
                            "dtype": "float32",
                            "filters": 11,
                            "kernel_size": [
                                5,
                                5
                            ],
                            "strides": [
                                2,
                                2
                            ],
                            "padding": "valid",
                            "data_format": "channels_last",
                            "dilation_rate": [
                                1,
                                1
                            ],
                            "groups": 1,
                            "activation": "linear",
                            "use_bias": false,
                            "kernel_initializer": {
                                "class_name": "HeNormal",
                                "config": {
                                    "seed": null
                                }
                            },
                            "bias_initializer": {
                                "class_name": "Zeros",
                                "config": {},
                                "shared_object_id": 24
                            },
                            "kernel_regularizer": null,
                            "bias_regularizer": null,
                            "activity_regularizer": null,
                            "kernel_constraint": null,
                            "bias_constraint": null,
                            "depth_multiplier": 1,
                            "depthwise_initializer": {
                                "class_name": "GlorotUniform",
                                "config": {
                                    "seed": null
                                }
                            },
                            "pointwise_initializer": {
                                "class_name": "GlorotUniform",
                                "config": {
                                    "seed": null
                                }
                            },
                            "depthwise_regularizer": null,
                            "pointwise_regularizer": null,
                            "depthwise_constraint": null,
                            "pointwise_constraint": null
                        },
                        "name": "separable_conv_1_reduction_left1_stem_1",
                        "inbound_nodes": [
                            [
                                [
                                    "separable_conv_1_pad_reduction_left1_stem_1",
                                    0,
                                    0,
                                    {}
                                ]
                            ]
                        ]
                    },
                    {
                        "class_name": "SeparableConv2D",
                        "config": {
                            "name": "separable_conv_1_reduction_right1_stem_1",
                            "trainable": false,
                            "dtype": "float32",
                            "filters": 11,
                            "kernel_size": [
                                7,
                                7
                            ],
                            "strides": [
                                2,
                                2
                            ],
                            "padding": "valid",
                            "data_format": "channels_last",
                            "dilation_rate": [
                                1,
                                1
                            ],
                            "groups": 1,
                            "activation": "linear",
                            "use_bias": false,
                            "kernel_initializer": {
                                "class_name": "HeNormal",
                                "config": {
                                    "seed": null
                                }
                            },
                            "bias_initializer": {
                                "class_name": "Zeros",
                                "config": {},
                                "shared_object_id": 29
                            },
                            "kernel_regularizer": null,
                            "bias_regularizer": null,
                            "activity_regularizer": null,
                            "kernel_constraint": null,
                            "bias_constraint": null,
                            "depth_multiplier": 1,
                            "depthwise_initializer": {
                                "class_name": "GlorotUniform",
                                "config": {
                                    "seed": null
                                }
                            },
                            "pointwise_initializer": {
                                "class_name": "GlorotUniform",
                                "config": {
                                    "seed": null
                                }
                            },
                            "depthwise_regularizer": null,
                            "pointwise_regularizer": null,
                            "depthwise_constraint": null,
                            "pointwise_constraint": null
                        },
                        "name": "separable_conv_1_reduction_right1_stem_1",
                        "inbound_nodes": [
                            [
                                [
                                    "separable_conv_1_pad_reduction_right1_stem_1",
                                    0,
                                    0,
                                    {}
                                ]
                            ]
                        ]
                    },
                    {
                        "class_name": "BatchNormalization",
                        "config": {
                            "name": "separable_conv_1_bn_reduction_left1_stem_1",
                            "trainable": false,
                            "dtype": "float32",
                            "axis": [
                                3
                            ],
                            "momentum": 0.9997,
                            "epsilon": 0.001,
                            "center": true,
                            "scale": true,
                            "beta_initializer": {
                                "class_name": "Zeros",
                                "config": {}
                            },
                            "gamma_initializer": {
                                "class_name": "Ones",
                                "config": {}
                            },
                            "moving_mean_initializer": {
                                "class_name": "Zeros",
                                "config": {}
                            },
                            "moving_variance_initializer": {
                                "class_name": "Ones",
                                "config": {}
                            },
                            "beta_regularizer": null,
                            "gamma_regularizer": null,
                            "beta_constraint": null,
                            "gamma_constraint": null
                        },
                        "name": "separable_conv_1_bn_reduction_left1_stem_1",
                        "inbound_nodes": [
                            [
                                [
                                    "separable_conv_1_reduction_left1_stem_1",
                                    0,
                                    0,
                                    {}
                                ]
                            ]
                        ]
                    },
                    {
                        "class_name": "BatchNormalization",
                        "config": {
                            "name": "separable_conv_1_bn_reduction_right1_stem_1",
                            "trainable": false,
                            "dtype": "float32",
                            "axis": [
                                3
                            ],
                            "momentum": 0.9997,
                            "epsilon": 0.001,
                            "center": true,
                            "scale": true,
                            "beta_initializer": {
                                "class_name": "Zeros",
                                "config": {}
                            },
                            "gamma_initializer": {
                                "class_name": "Ones",
                                "config": {}
                            },
                            "moving_mean_initializer": {
                                "class_name": "Zeros",
                                "config": {}
                            },
                            "moving_variance_initializer": {
                                "class_name": "Ones",
                                "config": {}
                            },
                            "beta_regularizer": null,
                            "gamma_regularizer": null,
                            "beta_constraint": null,
                            "gamma_constraint": null
                        },
                        "name": "separable_conv_1_bn_reduction_right1_stem_1",
                        "inbound_nodes": [
                            [
                                [
                                    "separable_conv_1_reduction_right1_stem_1",
                                    0,
                                    0,
                                    {}
                                ]
                            ]
                        ]
                    },
                    {
                        "class_name": "Activation",
                        "config": {
                            "name": "activation_2",
                            "trainable": false,
                            "dtype": "float32",
                            "activation": "relu"
                        },
                        "name": "activation_2",
                        "inbound_nodes": [
                            [
                                [
                                    "separable_conv_1_bn_reduction_left1_stem_1",
                                    0,
                                    0,
                                    {}
                                ]
                            ]
                        ]
                    },
                    {
                        "class_name": "Activation",
                        "config": {
                            "name": "activation_4",
                            "trainable": false,
                            "dtype": "float32",
                            "activation": "relu"
                        },
                        "name": "activation_4",
                        "inbound_nodes": [
                            [
                                [
                                    "separable_conv_1_bn_reduction_right1_stem_1",
                                    0,
                                    0,
                                    {}
                                ]
                            ]
                        ]
                    },
                    {
                        "class_name": "SeparableConv2D",
                        "config": {
                            "name": "separable_conv_2_reduction_left1_stem_1",
                            "trainable": false,
                            "dtype": "float32",
                            "filters": 11,
                            "kernel_size": [
                                5,
                                5
                            ],
                            "strides": [
                                1,
                                1
                            ],
                            "padding": "same",
                            "data_format": "channels_last",
                            "dilation_rate": [
                                1,
                                1
                            ],
                            "groups": 1,
                            "activation": "linear",
                            "use_bias": false,
                            "kernel_initializer": {
                                "class_name": "HeNormal",
                                "config": {
                                    "seed": null
                                }
                            },
                            "bias_initializer": {
                                "class_name": "Zeros",
                                "config": {},
                                "shared_object_id": 46
                            },
                            "kernel_regularizer": null,
                            "bias_regularizer": null,
                            "activity_regularizer": null,
                            "kernel_constraint": null,
                            "bias_constraint": null,
                            "depth_multiplier": 1,
                            "depthwise_initializer": {
                                "class_name": "GlorotUniform",
                                "config": {
                                    "seed": null
                                }
                            },
                            "pointwise_initializer": {
                                "class_name": "GlorotUniform",
                                "config": {
                                    "seed": null
                                }
                            },
                            "depthwise_regularizer": null,
                            "pointwise_regularizer": null,
                            "depthwise_constraint": null,
                            "pointwise_constraint": null
                        },
                        "name": "separable_conv_2_reduction_left1_stem_1",
                        "inbound_nodes": [
                            [
                                [
                                    "activation_2",
                                    0,
                                    0,
                                    {}
                                ]
                            ]
                        ]
                    },
                    {
                        "class_name": "SeparableConv2D",
                        "config": {
                            "name": "separable_conv_2_reduction_right1_stem_1",
                            "trainable": false,
                            "dtype": "float32",
                            "filters": 11,
                            "kernel_size": [
                                7,
                                7
                            ],
                            "strides": [
                                1,
                                1
                            ],
                            "padding": "same",
                            "data_format": "channels_last",
                            "dilation_rate": [
                                1,
                                1
                            ],
                            "groups": 1,
                            "activation": "linear",
                            "use_bias": false,
                            "kernel_initializer": {
                                "class_name": "HeNormal",
                                "config": {
                                    "seed": null
                                }
                            },
                            "bias_initializer": {
                                "class_name": "Zeros",
                                "config": {},
                                "shared_object_id": 51
                            },
                            "kernel_regularizer": null,
                            "bias_regularizer": null,
                            "activity_regularizer": null,
                            "kernel_constraint": null,
                            "bias_constraint": null,
                            "depth_multiplier": 1,
                            "depthwise_initializer": {
                                "class_name": "GlorotUniform",
                                "config": {
                                    "seed": null
                                }
                            },
                            "pointwise_initializer": {
                                "class_name": "GlorotUniform",
                                "config": {
                                    "seed": null
                                }
                            },
                            "depthwise_regularizer": null,
                            "pointwise_regularizer": null,
                            "depthwise_constraint": null,
                            "pointwise_constraint": null
                        },
                        "name": "separable_conv_2_reduction_right1_stem_1",
                        "inbound_nodes": [
                            [
                                [
                                    "activation_4",
                                    0,
                                    0,
                                    {}
                                ]
                            ]
                        ]
                    },
                    {
                        "class_name": "Activation",
                        "config": {
                            "name": "activation_5",
                            "trainable": false,
                            "dtype": "float32",
                            "activation": "relu"
                        },
                        "name": "activation_5",
                        "inbound_nodes": [
                            [
                                [
                                    "stem_bn1",
                                    0,
                                    0,
                                    {}
                                ]
                            ]
                        ]
                    },
                    {
                        "class_name": "BatchNormalization",
                        "config": {
                            "name": "separable_conv_2_bn_reduction_left1_stem_1",
                            "trainable": false,
                            "dtype": "float32",
                            "axis": [
                                3
                            ],
                            "momentum": 0.9997,
                            "epsilon": 0.001,
                            "center": true,
                            "scale": true,
                            "beta_initializer": {
                                "class_name": "Zeros",
                                "config": {}
                            },
                            "gamma_initializer": {
                                "class_name": "Ones",
                                "config": {}
                            },
                            "moving_mean_initializer": {
                                "class_name": "Zeros",
                                "config": {}
                            },
                            "moving_variance_initializer": {
                                "class_name": "Ones",
                                "config": {}
                            },
                            "beta_regularizer": null,
                            "gamma_regularizer": null,
                            "beta_constraint": null,
                            "gamma_constraint": null
                        },
                        "name": "separable_conv_2_bn_reduction_left1_stem_1",
                        "inbound_nodes": [
                            [
                                [
                                    "separable_conv_2_reduction_left1_stem_1",
                                    0,
                                    0,
                                    {}
                                ]
                            ]
                        ]
                    },
                    {
                        "class_name": "BatchNormalization",
                        "config": {
                            "name": "separable_conv_2_bn_reduction_right1_stem_1",
                            "trainable": false,
                            "dtype": "float32",
                            "axis": [
                                3
                            ],
                            "momentum": 0.9997,
                            "epsilon": 0.001,
                            "center": true,
                            "scale": true,
                            "beta_initializer": {
                                "class_name": "Zeros",
                                "config": {}
                            },
                            "gamma_initializer": {
                                "class_name": "Ones",
                                "config": {}
                            },
                            "moving_mean_initializer": {
                                "class_name": "Zeros",
                                "config": {}
                            },
                            "moving_variance_initializer": {
                                "class_name": "Ones",
                                "config": {}
                            },
                            "beta_regularizer": null,
                            "gamma_regularizer": null,
                            "beta_constraint": null,
                            "gamma_constraint": null
                        },
                        "name": "separable_conv_2_bn_reduction_right1_stem_1",
                        "inbound_nodes": [
                            [
                                [
                                    "separable_conv_2_reduction_right1_stem_1",
                                    0,
                                    0,
                                    {}
                                ]
                            ]
                        ]
                    },
                    {
                        "class_name": "ZeroPadding2D",
                        "config": {
                            "name": "separable_conv_1_pad_reduction_right2_stem_1",
                            "trainable": false,
                            "dtype": "float32",
                            "padding": [
                                [
                                    3,
                                    3
                                ],
                                [
                                    3,
                                    3
                                ]
                            ],
                            "data_format": "channels_last"
                        },
                        "name": "separable_conv_1_pad_reduction_right2_stem_1",
                        "inbound_nodes": [
                            [
                                [
                                    "activation_5",
                                    0,
                                    0,
                                    {}
                                ]
                            ]
                        ]
                    },
                    {
                        "class_name": "Activation",
                        "config": {
                            "name": "activation_7",
                            "trainable": false,
                            "dtype": "float32",
                            "activation": "relu"
                        },
                        "name": "activation_7",
                        "inbound_nodes": [
                            [
                                [
                                    "stem_bn1",
                                    0,
                                    0,
                                    {}
                                ]
                            ]
                        ]
                    },
                    {
                        "class_name": "Add",
                        "config": {
                            "name": "reduction_add_1_stem_1",
                            "trainable": false,
                            "dtype": "float32"
                        },
                        "name": "reduction_add_1_stem_1",
                        "inbound_nodes": [
                            [
                                [
                                    "separable_conv_2_bn_reduction_left1_stem_1",
                                    0,
                                    0,
                                    {}
                                ],
                                [
                                    "separable_conv_2_bn_reduction_right1_stem_1",
                                    0,
                                    0,
                                    {}
                                ]
                            ]
                        ]
                    },
                    {
                        "class_name": "SeparableConv2D",
                        "config": {
                            "name": "separable_conv_1_reduction_right2_stem_1",
                            "trainable": false,
                            "dtype": "float32",
                            "filters": 11,
                            "kernel_size": [
                                7,
                                7
                            ],
                            "strides": [
                                2,
                                2
                            ],
                            "padding": "valid",
                            "data_format": "channels_last",
                            "dilation_rate": [
                                1,
                                1
                            ],
                            "groups": 1,
                            "activation": "linear",
                            "use_bias": false,
                            "kernel_initializer": {
                                "class_name": "HeNormal",
                                "config": {
                                    "seed": null
                                }
                            },
                            "bias_initializer": {
                                "class_name": "Zeros",
                                "config": {},
                                "shared_object_id": 70
                            },
                            "kernel_regularizer": null,
                            "bias_regularizer": null,
                            "activity_regularizer": null,
                            "kernel_constraint": null,
                            "bias_constraint": null,
                            "depth_multiplier": 1,
                            "depthwise_initializer": {
                                "class_name": "GlorotUniform",
                                "config": {
                                    "seed": null
                                }
                            },
                            "pointwise_initializer": {
                                "class_name": "GlorotUniform",
                                "config": {
                                    "seed": null
                                }
                            },
                            "depthwise_regularizer": null,
                            "pointwise_regularizer": null,
                            "depthwise_constraint": null,
                            "pointwise_constraint": null
                        },
                        "name": "separable_conv_1_reduction_right2_stem_1",
                        "inbound_nodes": [
                            [
                                [
                                    "separable_conv_1_pad_reduction_right2_stem_1",
                                    0,
                                    0,
                                    {}
                                ]
                            ]
                        ]
                    },
                    {
                        "class_name": "ZeroPadding2D",
                        "config": {
                            "name": "separable_conv_1_pad_reduction_right3_stem_1",
                            "trainable": false,
                            "dtype": "float32",
                            "padding": [
                                [
                                    2,
                                    2
                                ],
                                [
                                    2,
                                    2
                                ]
                            ],
                            "data_format": "channels_last"
                        },
                        "name": "separable_conv_1_pad_reduction_right3_stem_1",
                        "inbound_nodes": [
                            [
                                [
                                    "activation_7",
                                    0,
                                    0,
                                    {}
                                ]
                            ]
                        ]
                    },
                    {
                        "class_name": "Activation",
                        "config": {
                            "name": "activation_9",
                            "trainable": false,
                            "dtype": "float32",
                            "activation": "relu"
                        },
                        "name": "activation_9",
                        "inbound_nodes": [
                            [
                                [
                                    "reduction_add_1_stem_1",
                                    0,
                                    0,
                                    {}
                                ]
                            ]
                        ]
                    },
                    {
                        "class_name": "BatchNormalization",
                        "config": {
                            "name": "separable_conv_1_bn_reduction_right2_stem_1",
                            "trainable": false,
                            "dtype": "float32",
                            "axis": [
                                3
                            ],
                            "momentum": 0.9997,
                            "epsilon": 0.001,
                            "center": true,
                            "scale": true,
                            "beta_initializer": {
                                "class_name": "Zeros",
                                "config": {}
                            },
                            "gamma_initializer": {
                                "class_name": "Ones",
                                "config": {}
                            },
                            "moving_mean_initializer": {
                                "class_name": "Zeros",
                                "config": {}
                            },
                            "moving_variance_initializer": {
                                "class_name": "Ones",
                                "config": {}
                            },
                            "beta_regularizer": null,
                            "gamma_regularizer": null,
                            "beta_constraint": null,
                            "gamma_constraint": null
                        },
                        "name": "separable_conv_1_bn_reduction_right2_stem_1",
                        "inbound_nodes": [
                            [
                                [
                                    "separable_conv_1_reduction_right2_stem_1",
                                    0,
                                    0,
                                    {}
                                ]
                            ]
                        ]
                    },
                    {
                        "class_name": "SeparableConv2D",
                        "config": {
                            "name": "separable_conv_1_reduction_right3_stem_1",
                            "trainable": false,
                            "dtype": "float32",
                            "filters": 11,
                            "kernel_size": [
                                5,
                                5
                            ],
                            "strides": [
                                2,
                                2
                            ],
                            "padding": "valid",
                            "data_format": "channels_last",
                            "dilation_rate": [
                                1,
                                1
                            ],
                            "groups": 1,
                            "activation": "linear",
                            "use_bias": false,
                            "kernel_initializer": {
                                "class_name": "HeNormal",
                                "config": {
                                    "seed": null
                                }
                            },
                            "bias_initializer": {
                                "class_name": "Zeros",
                                "config": {},
                                "shared_object_id": 82
                            },
                            "kernel_regularizer": null,
                            "bias_regularizer": null,
                            "activity_regularizer": null,
                            "kernel_constraint": null,
                            "bias_constraint": null,
                            "depth_multiplier": 1,
                            "depthwise_initializer": {
                                "class_name": "GlorotUniform",
                                "config": {
                                    "seed": null
                                }
                            },
                            "pointwise_initializer": {
                                "class_name": "GlorotUniform",
                                "config": {
                                    "seed": null
                                }
                            },
                            "depthwise_regularizer": null,
                            "pointwise_regularizer": null,
                            "depthwise_constraint": null,
                            "pointwise_constraint": null
                        },
                        "name": "separable_conv_1_reduction_right3_stem_1",
                        "inbound_nodes": [
                            [
                                [
                                    "separable_conv_1_pad_reduction_right3_stem_1",
                                    0,
                                    0,
                                    {}
                                ]
                            ]
                        ]
                    },
                    {
                        "class_name": "SeparableConv2D",
                        "config": {
                            "name": "separable_conv_1_reduction_left4_stem_1",
                            "trainable": false,
                            "dtype": "float32",
                            "filters": 11,
                            "kernel_size": [
                                3,
                                3
                            ],
                            "strides": [
                                1,
                                1
                            ],
                            "padding": "same",
                            "data_format": "channels_last",
                            "dilation_rate": [
                                1,
                                1
                            ],
                            "groups": 1,
                            "activation": "linear",
                            "use_bias": false,
                            "kernel_initializer": {
                                "class_name": "HeNormal",
                                "config": {
                                    "seed": null
                                }
                            },
                            "bias_initializer": {
                                "class_name": "Zeros",
                                "config": {},
                                "shared_object_id": 87
                            },
                            "kernel_regularizer": null,
                            "bias_regularizer": null,
                            "activity_regularizer": null,
                            "kernel_constraint": null,
                            "bias_constraint": null,
                            "depth_multiplier": 1,
                            "depthwise_initializer": {
                                "class_name": "GlorotUniform",
                                "config": {
                                    "seed": null
                                }
                            },
                            "pointwise_initializer": {
                                "class_name": "GlorotUniform",
                                "config": {
                                    "seed": null
                                }
                            },
                            "depthwise_regularizer": null,
                            "pointwise_regularizer": null,
                            "depthwise_constraint": null,
                            "pointwise_constraint": null
                        },
                        "name": "separable_conv_1_reduction_left4_stem_1",
                        "inbound_nodes": [
                            [
                                [
                                    "activation_9",
                                    0,
                                    0,
                                    {}
                                ]
                            ]
                        ]
                    },
                    {
                        "class_name": "Activation",
                        "config": {
                            "name": "activation_6",
                            "trainable": false,
                            "dtype": "float32",
                            "activation": "relu"
                        },
                        "name": "activation_6",
                        "inbound_nodes": [
                            [
                                [
                                    "separable_conv_1_bn_reduction_right2_stem_1",
                                    0,
                                    0,
                                    {}
                                ]
                            ]
                        ]
                    },
                    {
                        "class_name": "BatchNormalization",
                        "config": {
                            "name": "separable_conv_1_bn_reduction_right3_stem_1",
                            "trainable": false,
                            "dtype": "float32",
                            "axis": [
                                3
                            ],
                            "momentum": 0.9997,
                            "epsilon": 0.001,
                            "center": true,
                            "scale": true,
                            "beta_initializer": {
                                "class_name": "Zeros",
                                "config": {}
                            },
                            "gamma_initializer": {
                                "class_name": "Ones",
                                "config": {}
                            },
                            "moving_mean_initializer": {
                                "class_name": "Zeros",
                                "config": {}
                            },
                            "moving_variance_initializer": {
                                "class_name": "Ones",
                                "config": {}
                            },
                            "beta_regularizer": null,
                            "gamma_regularizer": null,
                            "beta_constraint": null,
                            "gamma_constraint": null
                        },
                        "name": "separable_conv_1_bn_reduction_right3_stem_1",
                        "inbound_nodes": [
                            [
                                [
                                    "separable_conv_1_reduction_right3_stem_1",
                                    0,
                                    0,
                                    {}
                                ]
                            ]
                        ]
                    },
                    {
                        "class_name": "BatchNormalization",
                        "config": {
                            "name": "separable_conv_1_bn_reduction_left4_stem_1",
                            "trainable": false,
                            "dtype": "float32",
                            "axis": [
                                3
                            ],
                            "momentum": 0.9997,
                            "epsilon": 0.001,
                            "center": true,
                            "scale": true,
                            "beta_initializer": {
                                "class_name": "Zeros",
                                "config": {}
                            },
                            "gamma_initializer": {
                                "class_name": "Ones",
                                "config": {}
                            },
                            "moving_mean_initializer": {
                                "class_name": "Zeros",
                                "config": {}
                            },
                            "moving_variance_initializer": {
                                "class_name": "Ones",
                                "config": {}
                            },
                            "beta_regularizer": null,
                            "gamma_regularizer": null,
                            "beta_constraint": null,
                            "gamma_constraint": null
                        },
                        "name": "separable_conv_1_bn_reduction_left4_stem_1",
                        "inbound_nodes": [
                            [
                                [
                                    "separable_conv_1_reduction_left4_stem_1",
                                    0,
                                    0,
                                    {}
                                ]
                            ]
                        ]
                    },
                    {
                        "class_name": "ZeroPadding2D",
                        "config": {
                            "name": "reduction_pad_1_stem_1",
                            "trainable": false,
                            "dtype": "float32",
                            "padding": [
                                [
                                    1,
                                    1
                                ],
                                [
                                    1,
                                    1
                                ]
                            ],
                            "data_format": "channels_last"
                        },
                        "name": "reduction_pad_1_stem_1",
                        "inbound_nodes": [
                            [
                                [
                                    "reduction_bn_1_stem_1",
                                    0,
                                    0,
                                    {}
                                ]
                            ]
                        ]
                    },
                    {
                        "class_name": "SeparableConv2D",
                        "config": {
                            "name": "separable_conv_2_reduction_right2_stem_1",
                            "trainable": false,
                            "dtype": "float32",
                            "filters": 11,
                            "kernel_size": [
                                7,
                                7
                            ],
                            "strides": [
                                1,
                                1
                            ],
                            "padding": "same",
                            "data_format": "channels_last",
                            "dilation_rate": [
                                1,
                                1
                            ],
                            "groups": 1,
                            "activation": "linear",
                            "use_bias": false,
                            "kernel_initializer": {
                                "class_name": "HeNormal",
                                "config": {
                                    "seed": null
                                }
                            },
                            "bias_initializer": {
                                "class_name": "Zeros",
                                "config": {},
                                "shared_object_id": 104
                            },
                            "kernel_regularizer": null,
                            "bias_regularizer": null,
                            "activity_regularizer": null,
                            "kernel_constraint": null,
                            "bias_constraint": null,
                            "depth_multiplier": 1,
                            "depthwise_initializer": {
                                "class_name": "GlorotUniform",
                                "config": {
                                    "seed": null
                                }
                            },
                            "pointwise_initializer": {
                                "class_name": "GlorotUniform",
                                "config": {
                                    "seed": null
                                }
                            },
                            "depthwise_regularizer": null,
                            "pointwise_regularizer": null,
                            "depthwise_constraint": null,
                            "pointwise_constraint": null
                        },
                        "name": "separable_conv_2_reduction_right2_stem_1",
                        "inbound_nodes": [
                            [
                                [
                                    "activation_6",
                                    0,
                                    0,
                                    {}
                                ]
                            ]
                        ]
                    },
                    {
                        "class_name": "Activation",
                        "config": {
                            "name": "activation_8",
                            "trainable": false,
                            "dtype": "float32",
                            "activation": "relu"
                        },
                        "name": "activation_8",
                        "inbound_nodes": [
                            [
                                [
                                    "separable_conv_1_bn_reduction_right3_stem_1",
                                    0,
                                    0,
                                    {}
                                ]
                            ]
                        ]
                    },
                    {
                        "class_name": "Activation",
                        "config": {
                            "name": "activation_10",
                            "trainable": false,
                            "dtype": "float32",
                            "activation": "relu"
                        },
                        "name": "activation_10",
                        "inbound_nodes": [
                            [
                                [
                                    "separable_conv_1_bn_reduction_left4_stem_1",
                                    0,
                                    0,
                                    {}
                                ]
                            ]
                        ]
                    },
                    {
                        "class_name": "MaxPooling2D",
                        "config": {
                            "name": "reduction_left2_stem_1",
                            "trainable": false,
                            "dtype": "float32",
                            "pool_size": [
                                3,
                                3
                            ],
                            "padding": "valid",
                            "strides": [
                                2,
                                2
                            ],
                            "data_format": "channels_last"
                        },
                        "name": "reduction_left2_stem_1",
                        "inbound_nodes": [
                            [
                                [
                                    "reduction_pad_1_stem_1",
                                    0,
                                    0,
                                    {}
                                ]
                            ]
                        ]
                    },
                    {
                        "class_name": "BatchNormalization",
                        "config": {
                            "name": "separable_conv_2_bn_reduction_right2_stem_1",
                            "trainable": false,
                            "dtype": "float32",
                            "axis": [
                                3
                            ],
                            "momentum": 0.9997,
                            "epsilon": 0.001,
                            "center": true,
                            "scale": true,
                            "beta_initializer": {
                                "class_name": "Zeros",
                                "config": {}
                            },
                            "gamma_initializer": {
                                "class_name": "Ones",
                                "config": {}
                            },
                            "moving_mean_initializer": {
                                "class_name": "Zeros",
                                "config": {}
                            },
                            "moving_variance_initializer": {
                                "class_name": "Ones",
                                "config": {}
                            },
                            "beta_regularizer": null,
                            "gamma_regularizer": null,
                            "beta_constraint": null,
                            "gamma_constraint": null
                        },
                        "name": "separable_conv_2_bn_reduction_right2_stem_1",
                        "inbound_nodes": [
                            [
                                [
                                    "separable_conv_2_reduction_right2_stem_1",
                                    0,
                                    0,
                                    {}
                                ]
                            ]
                        ]
                    },
                    {
                        "class_name": "SeparableConv2D",
                        "config": {
                            "name": "separable_conv_2_reduction_right3_stem_1",
                            "trainable": false,
                            "dtype": "float32",
                            "filters": 11,
                            "kernel_size": [
                                5,
                                5
                            ],
                            "strides": [
                                1,
                                1
                            ],
                            "padding": "same",
                            "data_format": "channels_last",
                            "dilation_rate": [
                                1,
                                1
                            ],
                            "groups": 1,
                            "activation": "linear",
                            "use_bias": false,
                            "kernel_initializer": {
                                "class_name": "HeNormal",
                                "config": {
                                    "seed": null
                                }
                            },
                            "bias_initializer": {
                                "class_name": "Zeros",
                                "config": {},
                                "shared_object_id": 117
                            },
                            "kernel_regularizer": null,
                            "bias_regularizer": null,
                            "activity_regularizer": null,
                            "kernel_constraint": null,
                            "bias_constraint": null,
                            "depth_multiplier": 1,
                            "depthwise_initializer": {
                                "class_name": "GlorotUniform",
                                "config": {
                                    "seed": null
                                }
                            },
                            "pointwise_initializer": {
                                "class_name": "GlorotUniform",
                                "config": {
                                    "seed": null
                                }
                            },
                            "depthwise_regularizer": null,
                            "pointwise_regularizer": null,
                            "depthwise_constraint": null,
                            "pointwise_constraint": null
                        },
                        "name": "separable_conv_2_reduction_right3_stem_1",
                        "inbound_nodes": [
                            [
                                [
                                    "activation_8",
                                    0,
                                    0,
                                    {}
                                ]
                            ]
                        ]
                    },
                    {
                        "class_name": "SeparableConv2D",
                        "config": {
                            "name": "separable_conv_2_reduction_left4_stem_1",
                            "trainable": false,
                            "dtype": "float32",
                            "filters": 11,
                            "kernel_size": [
                                3,
                                3
                            ],
                            "strides": [
                                1,
                                1
                            ],
                            "padding": "same",
                            "data_format": "channels_last",
                            "dilation_rate": [
                                1,
                                1
                            ],
                            "groups": 1,
                            "activation": "linear",
                            "use_bias": false,
                            "kernel_initializer": {
                                "class_name": "HeNormal",
                                "config": {
                                    "seed": null
                                }
                            },
                            "bias_initializer": {
                                "class_name": "Zeros",
                                "config": {},
                                "shared_object_id": 122
                            },
                            "kernel_regularizer": null,
                            "bias_regularizer": null,
                            "activity_regularizer": null,
                            "kernel_constraint": null,
                            "bias_constraint": null,
                            "depth_multiplier": 1,
                            "depthwise_initializer": {
                                "class_name": "GlorotUniform",
                                "config": {
                                    "seed": null
                                }
                            },
                            "pointwise_initializer": {
                                "class_name": "GlorotUniform",
                                "config": {
                                    "seed": null
                                }
                            },
                            "depthwise_regularizer": null,
                            "pointwise_regularizer": null,
                            "depthwise_constraint": null,
                            "pointwise_constraint": null
                        },
                        "name": "separable_conv_2_reduction_left4_stem_1",
                        "inbound_nodes": [
                            [
                                [
                                    "activation_10",
                                    0,
                                    0,
                                    {}
                                ]
                            ]
                        ]
                    },
                    {
                        "class_name": "Activation",
                        "config": {
                            "name": "adjust_relu_1_stem_2",
                            "trainable": false,
                            "dtype": "float32",
                            "activation": "relu"
                        },
                        "name": "adjust_relu_1_stem_2",
                        "inbound_nodes": [
                            [
                                [
                                    "stem_bn1",
                                    0,
                                    0,
                                    {}
                                ]
                            ]
                        ]
                    },
                    {
                        "class_name": "Add",
                        "config": {
                            "name": "reduction_add_2_stem_1",
                            "trainable": false,
                            "dtype": "float32"
                        },
                        "name": "reduction_add_2_stem_1",
                        "inbound_nodes": [
                            [
                                [
                                    "reduction_left2_stem_1",
                                    0,
                                    0,
                                    {}
                                ],
                                [
                                    "separable_conv_2_bn_reduction_right2_stem_1",
                                    0,
                                    0,
                                    {}
                                ]
                            ]
                        ]
                    },
                    {
                        "class_name": "AveragePooling2D",
                        "config": {
                            "name": "reduction_left3_stem_1",
                            "trainable": false,
                            "dtype": "float32",
                            "pool_size": [
                                3,
                                3
                            ],
                            "padding": "valid",
                            "strides": [
                                2,
                                2
                            ],
                            "data_format": "channels_last"
                        },
                        "name": "reduction_left3_stem_1",
                        "inbound_nodes": [
                            [
                                [
                                    "reduction_pad_1_stem_1",
                                    0,
                                    0,
                                    {}
                                ]
                            ]
                        ]
                    },
                    {
                        "class_name": "BatchNormalization",
                        "config": {
                            "name": "separable_conv_2_bn_reduction_right3_stem_1",
                            "trainable": false,
                            "dtype": "float32",
                            "axis": [
                                3
                            ],
                            "momentum": 0.9997,
                            "epsilon": 0.001,
                            "center": true,
                            "scale": true,
                            "beta_initializer": {
                                "class_name": "Zeros",
                                "config": {}
                            },
                            "gamma_initializer": {
                                "class_name": "Ones",
                                "config": {}
                            },
                            "moving_mean_initializer": {
                                "class_name": "Zeros",
                                "config": {}
                            },
                            "moving_variance_initializer": {
                                "class_name": "Ones",
                                "config": {}
                            },
                            "beta_regularizer": null,
                            "gamma_regularizer": null,
                            "beta_constraint": null,
                            "gamma_constraint": null
                        },
                        "name": "separable_conv_2_bn_reduction_right3_stem_1",
                        "inbound_nodes": [
                            [
                                [
                                    "separable_conv_2_reduction_right3_stem_1",
                                    0,
                                    0,
                                    {}
                                ]
                            ]
                        ]
                    },
                    {
                        "class_name": "AveragePooling2D",
                        "config": {
                            "name": "reduction_left4_stem_1",
                            "trainable": false,
                            "dtype": "float32",
                            "pool_size": [
                                3,
                                3
                            ],
                            "padding": "same",
                            "strides": [
                                1,
                                1
                            ],
                            "data_format": "channels_last"
                        },
                        "name": "reduction_left4_stem_1",
                        "inbound_nodes": [
                            [
                                [
                                    "reduction_add_1_stem_1",
                                    0,
                                    0,
                                    {}
                                ]
                            ]
                        ]
                    },
                    {
                        "class_name": "BatchNormalization",
                        "config": {
                            "name": "separable_conv_2_bn_reduction_left4_stem_1",
                            "trainable": false,
                            "dtype": "float32",
                            "axis": [
                                3
                            ],
                            "momentum": 0.9997,
                            "epsilon": 0.001,
                            "center": true,
                            "scale": true,
                            "beta_initializer": {
                                "class_name": "Zeros",
                                "config": {}
                            },
                            "gamma_initializer": {
                                "class_name": "Ones",
                                "config": {}
                            },
                            "moving_mean_initializer": {
                                "class_name": "Zeros",
                                "config": {}
                            },
                            "moving_variance_initializer": {
                                "class_name": "Ones",
                                "config": {}
                            },
                            "beta_regularizer": null,
                            "gamma_regularizer": null,
                            "beta_constraint": null,
                            "gamma_constraint": null
                        },
                        "name": "separable_conv_2_bn_reduction_left4_stem_1",
                        "inbound_nodes": [
                            [
                                [
                                    "separable_conv_2_reduction_left4_stem_1",
                                    0,
                                    0,
                                    {}
                                ]
                            ]
                        ]
                    },
                    {
                        "class_name": "MaxPooling2D",
                        "config": {
                            "name": "reduction_right5_stem_1",
                            "trainable": false,
                            "dtype": "float32",
                            "pool_size": [
                                3,
                                3
                            ],
                            "padding": "valid",
                            "strides": [
                                2,
                                2
                            ],
                            "data_format": "channels_last"
                        },
                        "name": "reduction_right5_stem_1",
                        "inbound_nodes": [
                            [
                                [
                                    "reduction_pad_1_stem_1",
                                    0,
                                    0,
                                    {}
                                ]
                            ]
                        ]
                    },
                    {
                        "class_name": "ZeroPadding2D",
                        "config": {
                            "name": "zero_padding2d",
                            "trainable": false,
                            "dtype": "float32",
                            "padding": [
                                [
                                    0,
                                    1
                                ],
                                [
                                    0,
                                    1
                                ]
                            ],
                            "data_format": "channels_last"
                        },
                        "name": "zero_padding2d",
                        "inbound_nodes": [
                            [
                                [
                                    "adjust_relu_1_stem_2",
                                    0,
                                    0,
                                    {}
                                ]
                            ]
                        ]
                    },
                    {
                        "class_name": "Add",
                        "config": {
                            "name": "reduction_add3_stem_1",
                            "trainable": false,
                            "dtype": "float32"
                        },
                        "name": "reduction_add3_stem_1",
                        "inbound_nodes": [
                            [
                                [
                                    "reduction_left3_stem_1",
                                    0,
                                    0,
                                    {}
                                ],
                                [
                                    "separable_conv_2_bn_reduction_right3_stem_1",
                                    0,
                                    0,
                                    {}
                                ]
                            ]
                        ]
                    },
                    {
                        "class_name": "Add",
                        "config": {
                            "name": "add",
                            "trainable": false,
                            "dtype": "float32"
                        },
                        "name": "add",
                        "inbound_nodes": [
                            [
                                [
                                    "reduction_add_2_stem_1",
                                    0,
                                    0,
                                    {}
                                ],
                                [
                                    "reduction_left4_stem_1",
                                    0,
                                    0,
                                    {}
                                ]
                            ]
                        ]
                    },
                    {
                        "class_name": "Add",
                        "config": {
                            "name": "reduction_add4_stem_1",
                            "trainable": false,
                            "dtype": "float32"
                        },
                        "name": "reduction_add4_stem_1",
                        "inbound_nodes": [
                            [
                                [
                                    "separable_conv_2_bn_reduction_left4_stem_1",
                                    0,
                                    0,
                                    {}
                                ],
                                [
                                    "reduction_right5_stem_1",
                                    0,
                                    0,
                                    {}
                                ]
                            ]
                        ]
                    },
                    {
                        "class_name": "Cropping2D",
                        "config": {
                            "name": "cropping2d",
                            "trainable": false,
                            "dtype": "float32",
                            "cropping": [
                                [
                                    1,
                                    0
                                ],
                                [
                                    1,
                                    0
                                ]
                            ],
                            "data_format": "channels_last"
                        },
                        "name": "cropping2d",
                        "inbound_nodes": [
                            [
                                [
                                    "zero_padding2d",
                                    0,
                                    0,
                                    {}
                                ]
                            ]
                        ]
                    },
                    {
                        "class_name": "Concatenate",
                        "config": {
                            "name": "reduction_concat_stem_1",
                            "trainable": false,
                            "dtype": "float32",
                            "axis": -1
                        },
                        "name": "reduction_concat_stem_1",
                        "inbound_nodes": [
                            [
                                [
                                    "reduction_add_2_stem_1",
                                    0,
                                    0,
                                    {}
                                ],
                                [
                                    "reduction_add3_stem_1",
                                    0,
                                    0,
                                    {}
                                ],
                                [
                                    "add",
                                    0,
                                    0,
                                    {}
                                ],
                                [
                                    "reduction_add4_stem_1",
                                    0,
                                    0,
                                    {}
                                ]
                            ]
                        ]
                    },
                    {
                        "class_name": "AveragePooling2D",
                        "config": {
                            "name": "adjust_avg_pool_1_stem_2",
                            "trainable": false,
                            "dtype": "float32",
                            "pool_size": [
                                1,
                                1
                            ],
                            "padding": "valid",
                            "strides": [
                                2,
                                2
                            ],
                            "data_format": "channels_last"
                        },
                        "name": "adjust_avg_pool_1_stem_2",
                        "inbound_nodes": [
                            [
                                [
                                    "adjust_relu_1_stem_2",
                                    0,
                                    0,
                                    {}
                                ]
                            ]
                        ]
                    },
                    {
                        "class_name": "AveragePooling2D",
                        "config": {
                            "name": "adjust_avg_pool_2_stem_2",
                            "trainable": false,
                            "dtype": "float32",
                            "pool_size": [
                                1,
                                1
                            ],
                            "padding": "valid",
                            "strides": [
                                2,
                                2
                            ],
                            "data_format": "channels_last"
                        },
                        "name": "adjust_avg_pool_2_stem_2",
                        "inbound_nodes": [
                            [
                                [
                                    "cropping2d",
                                    0,
                                    0,
                                    {}
                                ]
                            ]
                        ]
                    },
                    {
                        "class_name": "Activation",
                        "config": {
                            "name": "activation_11",
                            "trainable": false,
                            "dtype": "float32",
                            "activation": "relu"
                        },
                        "name": "activation_11",
                        "inbound_nodes": [
                            [
                                [
                                    "reduction_concat_stem_1",
                                    0,
                                    0,
                                    {}
                                ]
                            ]
                        ]
                    },
                    {
                        "class_name": "Conv2D",
                        "config": {
                            "name": "adjust_conv_1_stem_2",
                            "trainable": false,
                            "dtype": "float32",
                            "filters": 11,
                            "kernel_size": [
                                1,
                                1
                            ],
                            "strides": [
                                1,
                                1
                            ],
                            "padding": "same",
                            "data_format": "channels_last",
                            "dilation_rate": [
                                1,
                                1
                            ],
                            "groups": 1,
                            "activation": "linear",
                            "use_bias": false,
                            "kernel_initializer": {
                                "class_name": "HeNormal",
                                "config": {
                                    "seed": null
                                }
                            },
                            "bias_initializer": {
                                "class_name": "Zeros",
                                "config": {}
                            },
                            "kernel_regularizer": null,
                            "bias_regularizer": null,
                            "activity_regularizer": null,
                            "kernel_constraint": null,
                            "bias_constraint": null
                        },
                        "name": "adjust_conv_1_stem_2",
                        "inbound_nodes": [
                            [
                                [
                                    "adjust_avg_pool_1_stem_2",
                                    0,
                                    0,
                                    {}
                                ]
                            ]
                        ]
                    },
                    {
                        "class_name": "Conv2D",
                        "config": {
                            "name": "adjust_conv_2_stem_2",
                            "trainable": false,
                            "dtype": "float32",
                            "filters": 11,
                            "kernel_size": [
                                1,
                                1
                            ],
                            "strides": [
                                1,
                                1
                            ],
                            "padding": "same",
                            "data_format": "channels_last",
                            "dilation_rate": [
                                1,
                                1
                            ],
                            "groups": 1,
                            "activation": "linear",
                            "use_bias": false,
                            "kernel_initializer": {
                                "class_name": "HeNormal",
                                "config": {
                                    "seed": null
                                }
                            },
                            "bias_initializer": {
                                "class_name": "Zeros",
                                "config": {}
                            },
                            "kernel_regularizer": null,
                            "bias_regularizer": null,
                            "activity_regularizer": null,
                            "kernel_constraint": null,
                            "bias_constraint": null
                        },
                        "name": "adjust_conv_2_stem_2",
                        "inbound_nodes": [
                            [
                                [
                                    "adjust_avg_pool_2_stem_2",
                                    0,
                                    0,
                                    {}
                                ]
                            ]
                        ]
                    },
                    {
                        "class_name": "Conv2D",
                        "config": {
                            "name": "reduction_conv_1_stem_2",
                            "trainable": false,
                            "dtype": "float32",
                            "filters": 22,
                            "kernel_size": [
                                1,
                                1
                            ],
                            "strides": [
                                1,
                                1
                            ],
                            "padding": "same",
                            "data_format": "channels_last",
                            "dilation_rate": [
                                1,
                                1
                            ],
                            "groups": 1,
                            "activation": "linear",
                            "use_bias": false,
                            "kernel_initializer": {
                                "class_name": "HeNormal",
                                "config": {
                                    "seed": null
                                }
                            },
                            "bias_initializer": {
                                "class_name": "Zeros",
                                "config": {}
                            },
                            "kernel_regularizer": null,
                            "bias_regularizer": null,
                            "activity_regularizer": null,
                            "kernel_constraint": null,
                            "bias_constraint": null
                        },
                        "name": "reduction_conv_1_stem_2",
                        "inbound_nodes": [
                            [
                                [
                                    "activation_11",
                                    0,
                                    0,
                                    {}
                                ]
                            ]
                        ]
                    },
                    {
                        "class_name": "Concatenate",
                        "config": {
                            "name": "concatenate",
                            "trainable": false,
                            "dtype": "float32",
                            "axis": -1
                        },
                        "name": "concatenate",
                        "inbound_nodes": [
                            [
                                [
                                    "adjust_conv_1_stem_2",
                                    0,
                                    0,
                                    {}
                                ],
                                [
                                    "adjust_conv_2_stem_2",
                                    0,
                                    0,
                                    {}
                                ]
                            ]
                        ]
                    },
                    {
                        "class_name": "BatchNormalization",
                        "config": {
                            "name": "reduction_bn_1_stem_2",
                            "trainable": false,
                            "dtype": "float32",
                            "axis": [
                                3
                            ],
                            "momentum": 0.9997,
                            "epsilon": 0.001,
                            "center": true,
                            "scale": true,
                            "beta_initializer": {
                                "class_name": "Zeros",
                                "config": {}
                            },
                            "gamma_initializer": {
                                "class_name": "Ones",
                                "config": {}
                            },
                            "moving_mean_initializer": {
                                "class_name": "Zeros",
                                "config": {}
                            },
                            "moving_variance_initializer": {
                                "class_name": "Ones",
                                "config": {}
                            },
                            "beta_regularizer": null,
                            "gamma_regularizer": null,
                            "beta_constraint": null,
                            "gamma_constraint": null
                        },
                        "name": "reduction_bn_1_stem_2",
                        "inbound_nodes": [
                            [
                                [
                                    "reduction_conv_1_stem_2",
                                    0,
                                    0,
                                    {}
                                ]
                            ]
                        ]
                    },
                    {
                        "class_name": "BatchNormalization",
                        "config": {
                            "name": "adjust_bn_stem_2",
                            "trainable": false,
                            "dtype": "float32",
                            "axis": [
                                3
                            ],
                            "momentum": 0.9997,
                            "epsilon": 0.001,
                            "center": true,
                            "scale": true,
                            "beta_initializer": {
                                "class_name": "Zeros",
                                "config": {}
                            },
                            "gamma_initializer": {
                                "class_name": "Ones",
                                "config": {}
                            },
                            "moving_mean_initializer": {
                                "class_name": "Zeros",
                                "config": {}
                            },
                            "moving_variance_initializer": {
                                "class_name": "Ones",
                                "config": {}
                            },
                            "beta_regularizer": null,
                            "gamma_regularizer": null,
                            "beta_constraint": null,
                            "gamma_constraint": null
                        },
                        "name": "adjust_bn_stem_2",
                        "inbound_nodes": [
                            [
                                [
                                    "concatenate",
                                    0,
                                    0,
                                    {}
                                ]
                            ]
                        ]
                    },
                    {
                        "class_name": "Activation",
                        "config": {
                            "name": "activation_12",
                            "trainable": false,
                            "dtype": "float32",
                            "activation": "relu"
                        },
                        "name": "activation_12",
                        "inbound_nodes": [
                            [
                                [
                                    "reduction_bn_1_stem_2",
                                    0,
                                    0,
                                    {}
                                ]
                            ]
                        ]
                    },
                    {
                        "class_name": "Activation",
                        "config": {
                            "name": "activation_14",
                            "trainable": false,
                            "dtype": "float32",
                            "activation": "relu"
                        },
                        "name": "activation_14",
                        "inbound_nodes": [
                            [
                                [
                                    "adjust_bn_stem_2",
                                    0,
                                    0,
                                    {}
                                ]
                            ]
                        ]
                    },
                    {
                        "class_name": "ZeroPadding2D",
                        "config": {
                            "name": "separable_conv_1_pad_reduction_left1_stem_2",
                            "trainable": false,
                            "dtype": "float32",
                            "padding": [
                                [
                                    1,
                                    2
                                ],
                                [
                                    1,
                                    2
                                ]
                            ],
                            "data_format": "channels_last"
                        },
                        "name": "separable_conv_1_pad_reduction_left1_stem_2",
                        "inbound_nodes": [
                            [
                                [
                                    "activation_12",
                                    0,
                                    0,
                                    {}
                                ]
                            ]
                        ]
                    },
                    {
                        "class_name": "ZeroPadding2D",
                        "config": {
                            "name": "separable_conv_1_pad_reduction_right1_stem_2",
                            "trainable": false,
                            "dtype": "float32",
                            "padding": [
                                [
                                    2,
                                    3
                                ],
                                [
                                    2,
                                    3
                                ]
                            ],
                            "data_format": "channels_last"
                        },
                        "name": "separable_conv_1_pad_reduction_right1_stem_2",
                        "inbound_nodes": [
                            [
                                [
                                    "activation_14",
                                    0,
                                    0,
                                    {}
                                ]
                            ]
                        ]
                    },
                    {
                        "class_name": "SeparableConv2D",
                        "config": {
                            "name": "separable_conv_1_reduction_left1_stem_2",
                            "trainable": false,
                            "dtype": "float32",
                            "filters": 22,
                            "kernel_size": [
                                5,
                                5
                            ],
                            "strides": [
                                2,
                                2
                            ],
                            "padding": "valid",
                            "data_format": "channels_last",
                            "dilation_rate": [
                                1,
                                1
                            ],
                            "groups": 1,
                            "activation": "linear",
                            "use_bias": false,
                            "kernel_initializer": {
                                "class_name": "HeNormal",
                                "config": {
                                    "seed": null
                                }
                            },
                            "bias_initializer": {
                                "class_name": "Zeros",
                                "config": {},
                                "shared_object_id": 175
                            },
                            "kernel_regularizer": null,
                            "bias_regularizer": null,
                            "activity_regularizer": null,
                            "kernel_constraint": null,
                            "bias_constraint": null,
                            "depth_multiplier": 1,
                            "depthwise_initializer": {
                                "class_name": "GlorotUniform",
                                "config": {
                                    "seed": null
                                }
                            },
                            "pointwise_initializer": {
                                "class_name": "GlorotUniform",
                                "config": {
                                    "seed": null
                                }
                            },
                            "depthwise_regularizer": null,
                            "pointwise_regularizer": null,
                            "depthwise_constraint": null,
                            "pointwise_constraint": null
                        },
                        "name": "separable_conv_1_reduction_left1_stem_2",
                        "inbound_nodes": [
                            [
                                [
                                    "separable_conv_1_pad_reduction_left1_stem_2",
                                    0,
                                    0,
                                    {}
                                ]
                            ]
                        ]
                    },
                    {
                        "class_name": "SeparableConv2D",
                        "config": {
                            "name": "separable_conv_1_reduction_right1_stem_2",
                            "trainable": false,
                            "dtype": "float32",
                            "filters": 22,
                            "kernel_size": [
                                7,
                                7
                            ],
                            "strides": [
                                2,
                                2
                            ],
                            "padding": "valid",
                            "data_format": "channels_last",
                            "dilation_rate": [
                                1,
                                1
                            ],
                            "groups": 1,
                            "activation": "linear",
                            "use_bias": false,
                            "kernel_initializer": {
                                "class_name": "HeNormal",
                                "config": {
                                    "seed": null
                                }
                            },
                            "bias_initializer": {
                                "class_name": "Zeros",
                                "config": {},
                                "shared_object_id": 180
                            },
                            "kernel_regularizer": null,
                            "bias_regularizer": null,
                            "activity_regularizer": null,
                            "kernel_constraint": null,
                            "bias_constraint": null,
                            "depth_multiplier": 1,
                            "depthwise_initializer": {
                                "class_name": "GlorotUniform",
                                "config": {
                                    "seed": null
                                }
                            },
                            "pointwise_initializer": {
                                "class_name": "GlorotUniform",
                                "config": {
                                    "seed": null
                                }
                            },
                            "depthwise_regularizer": null,
                            "pointwise_regularizer": null,
                            "depthwise_constraint": null,
                            "pointwise_constraint": null
                        },
                        "name": "separable_conv_1_reduction_right1_stem_2",
                        "inbound_nodes": [
                            [
                                [
                                    "separable_conv_1_pad_reduction_right1_stem_2",
                                    0,
                                    0,
                                    {}
                                ]
                            ]
                        ]
                    },
                    {
                        "class_name": "BatchNormalization",
                        "config": {
                            "name": "separable_conv_1_bn_reduction_left1_stem_2",
                            "trainable": false,
                            "dtype": "float32",
                            "axis": [
                                3
                            ],
                            "momentum": 0.9997,
                            "epsilon": 0.001,
                            "center": true,
                            "scale": true,
                            "beta_initializer": {
                                "class_name": "Zeros",
                                "config": {}
                            },
                            "gamma_initializer": {
                                "class_name": "Ones",
                                "config": {}
                            },
                            "moving_mean_initializer": {
                                "class_name": "Zeros",
                                "config": {}
                            },
                            "moving_variance_initializer": {
                                "class_name": "Ones",
                                "config": {}
                            },
                            "beta_regularizer": null,
                            "gamma_regularizer": null,
                            "beta_constraint": null,
                            "gamma_constraint": null
                        },
                        "name": "separable_conv_1_bn_reduction_left1_stem_2",
                        "inbound_nodes": [
                            [
                                [
                                    "separable_conv_1_reduction_left1_stem_2",
                                    0,
                                    0,
                                    {}
                                ]
                            ]
                        ]
                    },
                    {
                        "class_name": "BatchNormalization",
                        "config": {
                            "name": "separable_conv_1_bn_reduction_right1_stem_2",
                            "trainable": false,
                            "dtype": "float32",
                            "axis": [
                                3
                            ],
                            "momentum": 0.9997,
                            "epsilon": 0.001,
                            "center": true,
                            "scale": true,
                            "beta_initializer": {
                                "class_name": "Zeros",
                                "config": {}
                            },
                            "gamma_initializer": {
                                "class_name": "Ones",
                                "config": {}
                            },
                            "moving_mean_initializer": {
                                "class_name": "Zeros",
                                "config": {}
                            },
                            "moving_variance_initializer": {
                                "class_name": "Ones",
                                "config": {}
                            },
                            "beta_regularizer": null,
                            "gamma_regularizer": null,
                            "beta_constraint": null,
                            "gamma_constraint": null
                        },
                        "name": "separable_conv_1_bn_reduction_right1_stem_2",
                        "inbound_nodes": [
                            [
                                [
                                    "separable_conv_1_reduction_right1_stem_2",
                                    0,
                                    0,
                                    {}
                                ]
                            ]
                        ]
                    },
                    {
                        "class_name": "Activation",
                        "config": {
                            "name": "activation_13",
                            "trainable": false,
                            "dtype": "float32",
                            "activation": "relu"
                        },
                        "name": "activation_13",
                        "inbound_nodes": [
                            [
                                [
                                    "separable_conv_1_bn_reduction_left1_stem_2",
                                    0,
                                    0,
                                    {}
                                ]
                            ]
                        ]
                    },
                    {
                        "class_name": "Activation",
                        "config": {
                            "name": "activation_15",
                            "trainable": false,
                            "dtype": "float32",
                            "activation": "relu"
                        },
                        "name": "activation_15",
                        "inbound_nodes": [
                            [
                                [
                                    "separable_conv_1_bn_reduction_right1_stem_2",
                                    0,
                                    0,
                                    {}
                                ]
                            ]
                        ]
                    },
                    {
                        "class_name": "SeparableConv2D",
                        "config": {
                            "name": "separable_conv_2_reduction_left1_stem_2",
                            "trainable": false,
                            "dtype": "float32",
                            "filters": 22,
                            "kernel_size": [
                                5,
                                5
                            ],
                            "strides": [
                                1,
                                1
                            ],
                            "padding": "same",
                            "data_format": "channels_last",
                            "dilation_rate": [
                                1,
                                1
                            ],
                            "groups": 1,
                            "activation": "linear",
                            "use_bias": false,
                            "kernel_initializer": {
                                "class_name": "HeNormal",
                                "config": {
                                    "seed": null
                                }
                            },
                            "bias_initializer": {
                                "class_name": "Zeros",
                                "config": {},
                                "shared_object_id": 197
                            },
                            "kernel_regularizer": null,
                            "bias_regularizer": null,
                            "activity_regularizer": null,
                            "kernel_constraint": null,
                            "bias_constraint": null,
                            "depth_multiplier": 1,
                            "depthwise_initializer": {
                                "class_name": "GlorotUniform",
                                "config": {
                                    "seed": null
                                }
                            },
                            "pointwise_initializer": {
                                "class_name": "GlorotUniform",
                                "config": {
                                    "seed": null
                                }
                            },
                            "depthwise_regularizer": null,
                            "pointwise_regularizer": null,
                            "depthwise_constraint": null,
                            "pointwise_constraint": null
                        },
                        "name": "separable_conv_2_reduction_left1_stem_2",
                        "inbound_nodes": [
                            [
                                [
                                    "activation_13",
                                    0,
                                    0,
                                    {}
                                ]
                            ]
                        ]
                    },
                    {
                        "class_name": "SeparableConv2D",
                        "config": {
                            "name": "separable_conv_2_reduction_right1_stem_2",
                            "trainable": false,
                            "dtype": "float32",
                            "filters": 22,
                            "kernel_size": [
                                7,
                                7
                            ],
                            "strides": [
                                1,
                                1
                            ],
                            "padding": "same",
                            "data_format": "channels_last",
                            "dilation_rate": [
                                1,
                                1
                            ],
                            "groups": 1,
                            "activation": "linear",
                            "use_bias": false,
                            "kernel_initializer": {
                                "class_name": "HeNormal",
                                "config": {
                                    "seed": null
                                }
                            },
                            "bias_initializer": {
                                "class_name": "Zeros",
                                "config": {},
                                "shared_object_id": 202
                            },
                            "kernel_regularizer": null,
                            "bias_regularizer": null,
                            "activity_regularizer": null,
                            "kernel_constraint": null,
                            "bias_constraint": null,
                            "depth_multiplier": 1,
                            "depthwise_initializer": {
                                "class_name": "GlorotUniform",
                                "config": {
                                    "seed": null
                                }
                            },
                            "pointwise_initializer": {
                                "class_name": "GlorotUniform",
                                "config": {
                                    "seed": null
                                }
                            },
                            "depthwise_regularizer": null,
                            "pointwise_regularizer": null,
                            "depthwise_constraint": null,
                            "pointwise_constraint": null
                        },
                        "name": "separable_conv_2_reduction_right1_stem_2",
                        "inbound_nodes": [
                            [
                                [
                                    "activation_15",
                                    0,
                                    0,
                                    {}
                                ]
                            ]
                        ]
                    },
                    {
                        "class_name": "Activation",
                        "config": {
                            "name": "activation_16",
                            "trainable": false,
                            "dtype": "float32",
                            "activation": "relu"
                        },
                        "name": "activation_16",
                        "inbound_nodes": [
                            [
                                [
                                    "adjust_bn_stem_2",
                                    0,
                                    0,
                                    {}
                                ]
                            ]
                        ]
                    },
                    {
                        "class_name": "BatchNormalization",
                        "config": {
                            "name": "separable_conv_2_bn_reduction_left1_stem_2",
                            "trainable": false,
                            "dtype": "float32",
                            "axis": [
                                3
                            ],
                            "momentum": 0.9997,
                            "epsilon": 0.001,
                            "center": true,
                            "scale": true,
                            "beta_initializer": {
                                "class_name": "Zeros",
                                "config": {}
                            },
                            "gamma_initializer": {
                                "class_name": "Ones",
                                "config": {}
                            },
                            "moving_mean_initializer": {
                                "class_name": "Zeros",
                                "config": {}
                            },
                            "moving_variance_initializer": {
                                "class_name": "Ones",
                                "config": {}
                            },
                            "beta_regularizer": null,
                            "gamma_regularizer": null,
                            "beta_constraint": null,
                            "gamma_constraint": null
                        },
                        "name": "separable_conv_2_bn_reduction_left1_stem_2",
                        "inbound_nodes": [
                            [
                                [
                                    "separable_conv_2_reduction_left1_stem_2",
                                    0,
                                    0,
                                    {}
                                ]
                            ]
                        ]
                    },
                    {
                        "class_name": "BatchNormalization",
                        "config": {
                            "name": "separable_conv_2_bn_reduction_right1_stem_2",
                            "trainable": false,
                            "dtype": "float32",
                            "axis": [
                                3
                            ],
                            "momentum": 0.9997,
                            "epsilon": 0.001,
                            "center": true,
                            "scale": true,
                            "beta_initializer": {
                                "class_name": "Zeros",
                                "config": {}
                            },
                            "gamma_initializer": {
                                "class_name": "Ones",
                                "config": {}
                            },
                            "moving_mean_initializer": {
                                "class_name": "Zeros",
                                "config": {}
                            },
                            "moving_variance_initializer": {
                                "class_name": "Ones",
                                "config": {}
                            },
                            "beta_regularizer": null,
                            "gamma_regularizer": null,
                            "beta_constraint": null,
                            "gamma_constraint": null
                        },
                        "name": "separable_conv_2_bn_reduction_right1_stem_2",
                        "inbound_nodes": [
                            [
                                [
                                    "separable_conv_2_reduction_right1_stem_2",
                                    0,
                                    0,
                                    {}
                                ]
                            ]
                        ]
                    },
                    {
                        "class_name": "ZeroPadding2D",
                        "config": {
                            "name": "separable_conv_1_pad_reduction_right2_stem_2",
                            "trainable": false,
                            "dtype": "float32",
                            "padding": [
                                [
                                    2,
                                    3
                                ],
                                [
                                    2,
                                    3
                                ]
                            ],
                            "data_format": "channels_last"
                        },
                        "name": "separable_conv_1_pad_reduction_right2_stem_2",
                        "inbound_nodes": [
                            [
                                [
                                    "activation_16",
                                    0,
                                    0,
                                    {}
                                ]
                            ]
                        ]
                    },
                    {
                        "class_name": "Activation",
                        "config": {
                            "name": "activation_18",
                            "trainable": false,
                            "dtype": "float32",
                            "activation": "relu"
                        },
                        "name": "activation_18",
                        "inbound_nodes": [
                            [
                                [
                                    "adjust_bn_stem_2",
                                    0,
                                    0,
                                    {}
                                ]
                            ]
                        ]
                    },
                    {
                        "class_name": "Add",
                        "config": {
                            "name": "reduction_add_1_stem_2",
                            "trainable": false,
                            "dtype": "float32"
                        },
                        "name": "reduction_add_1_stem_2",
                        "inbound_nodes": [
                            [
                                [
                                    "separable_conv_2_bn_reduction_left1_stem_2",
                                    0,
                                    0,
                                    {}
                                ],
                                [
                                    "separable_conv_2_bn_reduction_right1_stem_2",
                                    0,
                                    0,
                                    {}
                                ]
                            ]
                        ]
                    },
                    {
                        "class_name": "SeparableConv2D",
                        "config": {
                            "name": "separable_conv_1_reduction_right2_stem_2",
                            "trainable": false,
                            "dtype": "float32",
                            "filters": 22,
                            "kernel_size": [
                                7,
                                7
                            ],
                            "strides": [
                                2,
                                2
                            ],
                            "padding": "valid",
                            "data_format": "channels_last",
                            "dilation_rate": [
                                1,
                                1
                            ],
                            "groups": 1,
                            "activation": "linear",
                            "use_bias": false,
                            "kernel_initializer": {
                                "class_name": "HeNormal",
                                "config": {
                                    "seed": null
                                }
                            },
                            "bias_initializer": {
                                "class_name": "Zeros",
                                "config": {},
                                "shared_object_id": 221
                            },
                            "kernel_regularizer": null,
                            "bias_regularizer": null,
                            "activity_regularizer": null,
                            "kernel_constraint": null,
                            "bias_constraint": null,
                            "depth_multiplier": 1,
                            "depthwise_initializer": {
                                "class_name": "GlorotUniform",
                                "config": {
                                    "seed": null
                                }
                            },
                            "pointwise_initializer": {
                                "class_name": "GlorotUniform",
                                "config": {
                                    "seed": null
                                }
                            },
                            "depthwise_regularizer": null,
                            "pointwise_regularizer": null,
                            "depthwise_constraint": null,
                            "pointwise_constraint": null
                        },
                        "name": "separable_conv_1_reduction_right2_stem_2",
                        "inbound_nodes": [
                            [
                                [
                                    "separable_conv_1_pad_reduction_right2_stem_2",
                                    0,
                                    0,
                                    {}
                                ]
                            ]
                        ]
                    },
                    {
                        "class_name": "ZeroPadding2D",
                        "config": {
                            "name": "separable_conv_1_pad_reduction_right3_stem_2",
                            "trainable": false,
                            "dtype": "float32",
                            "padding": [
                                [
                                    1,
                                    2
                                ],
                                [
                                    1,
                                    2
                                ]
                            ],
                            "data_format": "channels_last"
                        },
                        "name": "separable_conv_1_pad_reduction_right3_stem_2",
                        "inbound_nodes": [
                            [
                                [
                                    "activation_18",
                                    0,
                                    0,
                                    {}
                                ]
                            ]
                        ]
                    },
                    {
                        "class_name": "Activation",
                        "config": {
                            "name": "activation_20",
                            "trainable": false,
                            "dtype": "float32",
                            "activation": "relu"
                        },
                        "name": "activation_20",
                        "inbound_nodes": [
                            [
                                [
                                    "reduction_add_1_stem_2",
                                    0,
                                    0,
                                    {}
                                ]
                            ]
                        ]
                    },
                    {
                        "class_name": "BatchNormalization",
                        "config": {
                            "name": "separable_conv_1_bn_reduction_right2_stem_2",
                            "trainable": false,
                            "dtype": "float32",
                            "axis": [
                                3
                            ],
                            "momentum": 0.9997,
                            "epsilon": 0.001,
                            "center": true,
                            "scale": true,
                            "beta_initializer": {
                                "class_name": "Zeros",
                                "config": {}
                            },
                            "gamma_initializer": {
                                "class_name": "Ones",
                                "config": {}
                            },
                            "moving_mean_initializer": {
                                "class_name": "Zeros",
                                "config": {}
                            },
                            "moving_variance_initializer": {
                                "class_name": "Ones",
                                "config": {}
                            },
                            "beta_regularizer": null,
                            "gamma_regularizer": null,
                            "beta_constraint": null,
                            "gamma_constraint": null
                        },
                        "name": "separable_conv_1_bn_reduction_right2_stem_2",
                        "inbound_nodes": [
                            [
                                [
                                    "separable_conv_1_reduction_right2_stem_2",
                                    0,
                                    0,
                                    {}
                                ]
                            ]
                        ]
                    },
                    {
                        "class_name": "SeparableConv2D",
                        "config": {
                            "name": "separable_conv_1_reduction_right3_stem_2",
                            "trainable": false,
                            "dtype": "float32",
                            "filters": 22,
                            "kernel_size": [
                                5,
                                5
                            ],
                            "strides": [
                                2,
                                2
                            ],
                            "padding": "valid",
                            "data_format": "channels_last",
                            "dilation_rate": [
                                1,
                                1
                            ],
                            "groups": 1,
                            "activation": "linear",
                            "use_bias": false,
                            "kernel_initializer": {
                                "class_name": "HeNormal",
                                "config": {
                                    "seed": null
                                }
                            },
                            "bias_initializer": {
                                "class_name": "Zeros",
                                "config": {},
                                "shared_object_id": 233
                            },
                            "kernel_regularizer": null,
                            "bias_regularizer": null,
                            "activity_regularizer": null,
                            "kernel_constraint": null,
                            "bias_constraint": null,
                            "depth_multiplier": 1,
                            "depthwise_initializer": {
                                "class_name": "GlorotUniform",
                                "config": {
                                    "seed": null
                                }
                            },
                            "pointwise_initializer": {
                                "class_name": "GlorotUniform",
                                "config": {
                                    "seed": null
                                }
                            },
                            "depthwise_regularizer": null,
                            "pointwise_regularizer": null,
                            "depthwise_constraint": null,
                            "pointwise_constraint": null
                        },
                        "name": "separable_conv_1_reduction_right3_stem_2",
                        "inbound_nodes": [
                            [
                                [
                                    "separable_conv_1_pad_reduction_right3_stem_2",
                                    0,
                                    0,
                                    {}
                                ]
                            ]
                        ]
                    },
                    {
                        "class_name": "SeparableConv2D",
                        "config": {
                            "name": "separable_conv_1_reduction_left4_stem_2",
                            "trainable": false,
                            "dtype": "float32",
                            "filters": 22,
                            "kernel_size": [
                                3,
                                3
                            ],
                            "strides": [
                                1,
                                1
                            ],
                            "padding": "same",
                            "data_format": "channels_last",
                            "dilation_rate": [
                                1,
                                1
                            ],
                            "groups": 1,
                            "activation": "linear",
                            "use_bias": false,
                            "kernel_initializer": {
                                "class_name": "HeNormal",
                                "config": {
                                    "seed": null
                                }
                            },
                            "bias_initializer": {
                                "class_name": "Zeros",
                                "config": {},
                                "shared_object_id": 238
                            },
                            "kernel_regularizer": null,
                            "bias_regularizer": null,
                            "activity_regularizer": null,
                            "kernel_constraint": null,
                            "bias_constraint": null,
                            "depth_multiplier": 1,
                            "depthwise_initializer": {
                                "class_name": "GlorotUniform",
                                "config": {
                                    "seed": null
                                }
                            },
                            "pointwise_initializer": {
                                "class_name": "GlorotUniform",
                                "config": {
                                    "seed": null
                                }
                            },
                            "depthwise_regularizer": null,
                            "pointwise_regularizer": null,
                            "depthwise_constraint": null,
                            "pointwise_constraint": null
                        },
                        "name": "separable_conv_1_reduction_left4_stem_2",
                        "inbound_nodes": [
                            [
                                [
                                    "activation_20",
                                    0,
                                    0,
                                    {}
                                ]
                            ]
                        ]
                    },
                    {
                        "class_name": "Activation",
                        "config": {
                            "name": "activation_17",
                            "trainable": false,
                            "dtype": "float32",
                            "activation": "relu"
                        },
                        "name": "activation_17",
                        "inbound_nodes": [
                            [
                                [
                                    "separable_conv_1_bn_reduction_right2_stem_2",
                                    0,
                                    0,
                                    {}
                                ]
                            ]
                        ]
                    },
                    {
                        "class_name": "BatchNormalization",
                        "config": {
                            "name": "separable_conv_1_bn_reduction_right3_stem_2",
                            "trainable": false,
                            "dtype": "float32",
                            "axis": [
                                3
                            ],
                            "momentum": 0.9997,
                            "epsilon": 0.001,
                            "center": true,
                            "scale": true,
                            "beta_initializer": {
                                "class_name": "Zeros",
                                "config": {}
…
                    "name": "separable_conv_2_normal_left1_12/depthwise_kernel",
                    "shape": [
                        5,
                        5,
                        176,
                        1
                    ],
                    "dtype": "float32"
                },
                {
                    "name": "separable_conv_2_normal_left1_12/pointwise_kernel",
                    "shape": [
                        1,
                        1,
                        176,
                        176
                    ],
                    "dtype": "float32"
                },
                {
                    "name": "separable_conv_2_normal_left1_2/depthwise_kernel",
                    "shape": [
                        5,
                        5,
                        44,
                        1
                    ],
                    "dtype": "float32"
                },
                {
                    "name": "separable_conv_2_normal_left1_2/pointwise_kernel",
                    "shape": [
                        1,
                        1,
                        44,
                        44
                    ],
                    "dtype": "float32"
                },
                {
                    "name": "separable_conv_2_normal_left1_3/depthwise_kernel",
                    "shape": [
                        5,
                        5,
                        44,
                        1
                    ],
                    "dtype": "float32"
                },
                {
                    "name": "separable_conv_2_normal_left1_3/pointwise_kernel",
                    "shape": [
                        1,
                        1,
                        44,
                        44
                    ],
                    "dtype": "float32"
                },
                {
                    "name": "separable_conv_2_normal_left1_5/depthwise_kernel",
                    "shape": [
                        5,
                        5,
                        88,
                        1
                    ],
                    "dtype": "float32"
                },
                {
                    "name": "separable_conv_2_normal_left1_5/pointwise_kernel",
                    "shape": [
                        1,
                        1,
                        88,
                        88
                    ],
                    "dtype": "float32"
                },
                {
                    "name": "separable_conv_2_normal_left1_6/depthwise_kernel",
                    "shape": [
                        5,
                        5,
                        88,
                        1
                    ],
                    "dtype": "float32"
                },
                {
                    "name": "separable_conv_2_normal_left1_6/pointwise_kernel",
                    "shape": [
                        1,
                        1,
                        88,
                        88
                    ],
                    "dtype": "float32"
                },
                {
                    "name": "separable_conv_2_normal_left1_7/depthwise_kernel",
                    "shape": [
                        5,
                        5,
                        88,
                        1
                    ],
                    "dtype": "float32"
                },
                {
                    "name": "separable_conv_2_normal_left1_7/pointwise_kernel",
                    "shape": [
                        1,
                        1,
                        88,
                        88
                    ],
                    "dtype": "float32"
                },
                {
                    "name": "separable_conv_2_normal_left1_8/depthwise_kernel",
                    "shape": [
                        5,
                        5,
                        88,
                        1
                    ],
                    "dtype": "float32"
                },
                {
                    "name": "separable_conv_2_normal_left1_8/pointwise_kernel",
                    "shape": [
                        1,
                        1,
                        88,
                        88
                    ],
                    "dtype": "float32"
                },
                {
                    "name": "separable_conv_2_normal_left1_9/depthwise_kernel",
                    "shape": [
                        5,
                        5,
                        176,
                        1
                    ],
                    "dtype": "float32"
                },
                {
                    "name": "separable_conv_2_normal_left1_9/pointwise_kernel",
                    "shape": [
                        1,
                        1,
                        176,
                        176
                    ],
                    "dtype": "float32"
                },
                {
                    "name": "separable_conv_2_normal_left2_0/depthwise_kernel",
                    "shape": [
                        5,
                        5,
                        44,
                        1
                    ],
                    "dtype": "float32"
                },
                {
                    "name": "separable_conv_2_normal_left2_0/pointwise_kernel",
                    "shape": [
                        1,
                        1,
                        44,
                        44
                    ],
                    "dtype": "float32"
                },
                {
                    "name": "separable_conv_2_normal_left2_1/depthwise_kernel",
                    "shape": [
                        5,
                        5,
                        44,
                        1
                    ],
                    "dtype": "float32"
                },
                {
                    "name": "separable_conv_2_normal_left2_1/pointwise_kernel",
                    "shape": [
                        1,
                        1,
                        44,
                        44
                    ],
                    "dtype": "float32"
                },
                {
                    "name": "separable_conv_2_normal_left2_10/depthwise_kernel",
                    "shape": [
                        5,
                        5,
                        176,
                        1
                    ],
                    "dtype": "float32"
                },
                {
                    "name": "separable_conv_2_normal_left2_10/pointwise_kernel",
                    "shape": [
                        1,
                        1,
                        176,
                        176
                    ],
                    "dtype": "float32"
                },
                {
                    "name": "separable_conv_2_normal_left2_11/depthwise_kernel",
                    "shape": [
                        5,
                        5,
                        176,
                        1
                    ],
                    "dtype": "float32"
                },
                {
                    "name": "separable_conv_2_normal_left2_11/pointwise_kernel",
                    "shape": [
                        1,
                        1,
                        176,
                        176
                    ],
                    "dtype": "float32"
                },
                {
                    "name": "separable_conv_2_normal_left2_12/depthwise_kernel",
                    "shape": [
                        5,
                        5,
                        176,
                        1
                    ],
                    "dtype": "float32"
                },
                {
                    "name": "separable_conv_2_normal_left2_12/pointwise_kernel",
                    "shape": [
                        1,
                        1,
                        176,
                        176
                    ],
                    "dtype": "float32"
                },
                {
                    "name": "separable_conv_2_normal_left2_2/depthwise_kernel",
                    "shape": [
                        5,
                        5,
                        44,
                        1
                    ],
                    "dtype": "float32"
                },
                {
                    "name": "separable_conv_2_normal_left2_2/pointwise_kernel",
                    "shape": [
                        1,
                        1,
                        44,
                        44
                    ],
                    "dtype": "float32"
                },
                {
                    "name": "separable_conv_2_normal_left2_3/depthwise_kernel",
                    "shape": [
                        5,
                        5,
                        44,
                        1
                    ],
                    "dtype": "float32"
                },
                {
                    "name": "separable_conv_2_normal_left2_3/pointwise_kernel",
                    "shape": [
                        1,
                        1,
                        44,
                        44
                    ],
                    "dtype": "float32"
                },
                {
                    "name": "separable_conv_2_normal_left2_5/depthwise_kernel",
                    "shape": [
                        5,
                        5,
                        88,
                        1
                    ],
                    "dtype": "float32"
                },
                {
                    "name": "separable_conv_2_normal_left2_5/pointwise_kernel",
                    "shape": [
                        1,
                        1,
                        88,
                        88
                    ],
                    "dtype": "float32"
                },
                {
                    "name": "separable_conv_2_normal_left2_6/depthwise_kernel",
                    "shape": [
                        5,
                        5,
                        88,
                        1
                    ],
                    "dtype": "float32"
                },
                {
                    "name": "separable_conv_2_normal_left2_6/pointwise_kernel",
                    "shape": [
                        1,
                        1,
                        88,
                        88
                    ],
                    "dtype": "float32"
                },
                {
                    "name": "separable_conv_2_normal_left2_7/depthwise_kernel",
                    "shape": [
                        5,
                        5,
                        88,
                        1
                    ],
                    "dtype": "float32"
                },
                {
                    "name": "separable_conv_2_normal_left2_7/pointwise_kernel",
                    "shape": [
                        1,
                        1,
                        88,
                        88
                    ],
                    "dtype": "float32"
                },
                {
                    "name": "separable_conv_2_normal_left2_8/depthwise_kernel",
                    "shape": [
                        5,
                        5,
                        88,
                        1
                    ],
                    "dtype": "float32"
                },
                {
                    "name": "separable_conv_2_normal_left2_8/pointwise_kernel",
                    "shape": [
                        1,
                        1,
                        88,
                        88
                    ],
                    "dtype": "float32"
                },
                {
                    "name": "separable_conv_2_normal_left2_9/depthwise_kernel",
                    "shape": [
                        5,
                        5,
                        176,
                        1
                    ],
                    "dtype": "float32"
                },
                {
                    "name": "separable_conv_2_normal_left2_9/pointwise_kernel",
                    "shape": [
                        1,
                        1,
                        176,
                        176
                    ],
                    "dtype": "float32"
                },
                {
                    "name": "separable_conv_2_normal_left5_0/depthwise_kernel",
                    "shape": [
                        3,
                        3,
                        44,
                        1
                    ],
                    "dtype": "float32"
                },
                {
                    "name": "separable_conv_2_normal_left5_0/pointwise_kernel",
                    "shape": [
                        1,
                        1,
                        44,
                        44
                    ],
                    "dtype": "float32"
                },
                {
                    "name": "separable_conv_2_normal_left5_1/depthwise_kernel",
                    "shape": [
                        3,
                        3,
                        44,
                        1
                    ],
                    "dtype": "float32"
                },
                {
                    "name": "separable_conv_2_normal_left5_1/pointwise_kernel",
                    "shape": [
                        1,
                        1,
                        44,
                        44
                    ],
                    "dtype": "float32"
                },
                {
                    "name": "separable_conv_2_normal_left5_10/depthwise_kernel",
                    "shape": [
                        3,
                        3,
                        176,
                        1
                    ],
                    "dtype": "float32"
                },
                {
                    "name": "separable_conv_2_normal_left5_10/pointwise_kernel",
                    "shape": [
                        1,
                        1,
                        176,
                        176
                    ],
                    "dtype": "float32"
                },
                {
                    "name": "separable_conv_2_normal_left5_11/depthwise_kernel",
                    "shape": [
                        3,
                        3,
                        176,
                        1
                    ],
                    "dtype": "float32"
                },
                {
                    "name": "separable_conv_2_normal_left5_11/pointwise_kernel",
                    "shape": [
                        1,
                        1,
                        176,
                        176
                    ],
                    "dtype": "float32"
                },
                {
                    "name": "separable_conv_2_normal_left5_12/depthwise_kernel",
                    "shape": [
                        3,
                        3,
                        176,
                        1
                    ],
                    "dtype": "float32"
                },
                {
                    "name": "separable_conv_2_normal_left5_12/pointwise_kernel",
                    "shape": [
                        1,
                        1,
                        176,
                        176
                    ],
                    "dtype": "float32"
                },
                {
                    "name": "separable_conv_2_normal_left5_2/depthwise_kernel",
                    "shape": [
                        3,
                        3,
                        44,
                        1
                    ],
                    "dtype": "float32"
                },
                {
                    "name": "separable_conv_2_normal_left5_2/pointwise_kernel",
                    "shape": [
                        1,
                        1,
                        44,
                        44
                    ],
                    "dtype": "float32"
                },
                {
                    "name": "separable_conv_2_normal_left5_3/depthwise_kernel",
                    "shape": [
                        3,
                        3,
                        44,
                        1
                    ],
                    "dtype": "float32"
                },
                {
                    "name": "separable_conv_2_normal_left5_3/pointwise_kernel",
                    "shape": [
                        1,
                        1,
                        44,
                        44
                    ],
                    "dtype": "float32"
                },
                {
                    "name": "separable_conv_2_normal_left5_5/depthwise_kernel",
                    "shape": [
                        3,
                        3,
                        88,
                        1
                    ],
                    "dtype": "float32"
                },
                {
                    "name": "separable_conv_2_normal_left5_5/pointwise_kernel",
                    "shape": [
                        1,
                        1,
                        88,
                        88
                    ],
                    "dtype": "float32"
                },
                {
                    "name": "separable_conv_2_normal_left5_6/depthwise_kernel",
                    "shape": [
                        3,
                        3,
                        88,
                        1
                    ],
                    "dtype": "float32"
                },
                {
                    "name": "separable_conv_2_normal_left5_6/pointwise_kernel",
                    "shape": [
                        1,
                        1,
                        88,
                        88
                    ],
                    "dtype": "float32"
                },
                {
                    "name": "separable_conv_2_normal_left5_7/depthwise_kernel",
                    "shape": [
                        3,
                        3,
                        88,
                        1
                    ],
                    "dtype": "float32"
                },
                {
                    "name": "separable_conv_2_normal_left5_7/pointwise_kernel",
                    "shape": [
                        1,
                        1,
                        88,
                        88
                    ],
                    "dtype": "float32"
                },
                {
                    "name": "separable_conv_2_normal_left5_8/depthwise_kernel",
                    "shape": [
                        3,
                        3,
                        88,
                        1
                    ],
                    "dtype": "float32"
                },
                {
                    "name": "separable_conv_2_normal_left5_8/pointwise_kernel",
                    "shape": [
                        1,
                        1,
                        88,
                        88
                    ],
                    "dtype": "float32"
                },
                {
                    "name": "separable_conv_2_normal_left5_9/depthwise_kernel",
                    "shape": [
                        3,
                        3,
                        176,
                        1
                    ],
                    "dtype": "float32"
                },
                {
                    "name": "separable_conv_2_normal_left5_9/pointwise_kernel",
                    "shape": [
                        1,
                        1,
                        176,
                        176
                    ],
                    "dtype": "float32"
                },
                {
                    "name": "separable_conv_2_normal_right1_0/depthwise_kernel",
                    "shape": [
                        3,
                        3,
                        44,
                        1
                    ],
                    "dtype": "float32"
                },
                {
                    "name": "separable_conv_2_normal_right1_0/pointwise_kernel",
                    "shape": [
                        1,
                        1,
                        44,
                        44
                    ],
                    "dtype": "float32"
                },
                {
                    "name": "separable_conv_2_normal_right1_1/depthwise_kernel",
                    "shape": [
                        3,
                        3,
                        44,
                        1
                    ],
                    "dtype": "float32"
                },
                {
                    "name": "separable_conv_2_normal_right1_1/pointwise_kernel",
                    "shape": [
                        1,
                        1,
                        44,
                        44
                    ],
                    "dtype": "float32"
                },
                {
                    "name": "separable_conv_2_normal_right1_10/depthwise_kernel",
                    "shape": [
                        3,
                        3,
                        176,
                        1
                    ],
                    "dtype": "float32"
                },
                {
                    "name": "separable_conv_2_normal_right1_10/pointwise_kernel",
                    "shape": [
                        1,
                        1,
                        176,
                        176
                    ],
                    "dtype": "float32"
                },
                {
                    "name": "separable_conv_2_normal_right1_11/depthwise_kernel",
                    "shape": [
                        3,
                        3,
                        176,
                        1
                    ],
                    "dtype": "float32"
                },
                {
                    "name": "separable_conv_2_normal_right1_11/pointwise_kernel",
                    "shape": [
                        1,
                        1,
                        176,
                        176
                    ],
                    "dtype": "float32"
                },
                {
                    "name": "separable_conv_2_normal_right1_12/depthwise_kernel",
                    "shape": [
                        3,
                        3,
                        176,
                        1
                    ],
                    "dtype": "float32"
                },
                {
                    "name": "separable_conv_2_normal_right1_12/pointwise_kernel",
                    "shape": [
                        1,
                        1,
                        176,
                        176
                    ],
                    "dtype": "float32"
                },
                {
                    "name": "separable_conv_2_normal_right1_2/depthwise_kernel",
                    "shape": [
                        3,
                        3,
                        44,
                        1
                    ],
                    "dtype": "float32"
                },
                {
                    "name": "separable_conv_2_normal_right1_2/pointwise_kernel",
                    "shape": [
                        1,
                        1,
                        44,
                        44
                    ],
                    "dtype": "float32"
                },
                {
                    "name": "separable_conv_2_normal_right1_3/depthwise_kernel",
                    "shape": [
                        3,
                        3,
                        44,
                        1
                    ],
                    "dtype": "float32"
                },
                {
                    "name": "separable_conv_2_normal_right1_3/pointwise_kernel",
                    "shape": [
                        1,
                        1,
                        44,
                        44
                    ],
                    "dtype": "float32"
                },
                {
                    "name": "separable_conv_2_normal_right1_5/depthwise_kernel",
                    "shape": [
                        3,
                        3,
                        88,
                        1
                    ],
                    "dtype": "float32"
                },
                {
                    "name": "separable_conv_2_normal_right1_5/pointwise_kernel",
                    "shape": [
                        1,
                        1,
                        88,
                        88
                    ],
                    "dtype": "float32"
                },
                {
                    "name": "separable_conv_2_normal_right1_6/depthwise_kernel",
                    "shape": [
                        3,
                        3,
                        88,
                        1
                    ],
                    "dtype": "float32"
                },
                {
                    "name": "separable_conv_2_normal_right1_6/pointwise_kernel",
                    "shape": [
                        1,
                        1,
                        88,
                        88
                    ],
                    "dtype": "float32"
                },
                {
                    "name": "separable_conv_2_normal_right1_7/depthwise_kernel",
                    "shape": [
                        3,
                        3,
                        88,
                        1
                    ],
                    "dtype": "float32"
                },
                {
                    "name": "separable_conv_2_normal_right1_7/pointwise_kernel",
                    "shape": [
                        1,
                        1,
                        88,
                        88
                    ],
                    "dtype": "float32"
                },
                {
                    "name": "separable_conv_2_normal_right1_8/depthwise_kernel",
                    "shape": [
                        3,
                        3,
                        88,
                        1
                    ],
                    "dtype": "float32"
                },
                {
                    "name": "separable_conv_2_normal_right1_8/pointwise_kernel",
                    "shape": [
                        1,
                        1,
                        88,
                        88
                    ],
                    "dtype": "float32"
                },
                {
                    "name": "separable_conv_2_normal_right1_9/depthwise_kernel",
                    "shape": [
                        3,
                        3,
                        176,
                        1
                    ],
                    "dtype": "float32"
                },
                {
                    "name": "separable_conv_2_normal_right1_9/pointwise_kernel",
                    "shape": [
                        1,
                        1,
                        176,
                        176
                    ],
                    "dtype": "float32"
                },
                {
                    "name": "separable_conv_2_normal_right2_0/depthwise_kernel",
                    "shape": [
                        3,
                        3,
                        44,
                        1
                    ],
                    "dtype": "float32"
                },
                {
                    "name": "separable_conv_2_normal_right2_0/pointwise_kernel",
                    "shape": [
                        1,
                        1,
                        44,
                        44
                    ],
                    "dtype": "float32"
                },
                {
                    "name": "separable_conv_2_normal_right2_1/depthwise_kernel",
                    "shape": [
                        3,
                        3,
                        44,
                        1
                    ],
                    "dtype": "float32"
                },
                {
                    "name": "separable_conv_2_normal_right2_1/pointwise_kernel",
                    "shape": [
                        1,
                        1,
                        44,
                        44
                    ],
                    "dtype": "float32"
                },
                {
                    "name": "separable_conv_2_normal_right2_10/depthwise_kernel",
                    "shape": [
                        3,
                        3,
                        176,
                        1
                    ],
                    "dtype": "float32"
                },
                {
                    "name": "separable_conv_2_normal_right2_10/pointwise_kernel",
                    "shape": [
                        1,
                        1,
                        176,
                        176
                    ],
                    "dtype": "float32"
                },
                {
                    "name": "separable_conv_2_normal_right2_11/depthwise_kernel",
                    "shape": [
                        3,
                        3,
                        176,
                        1
                    ],
                    "dtype": "float32"
                },
                {
                    "name": "separable_conv_2_normal_right2_11/pointwise_kernel",
                    "shape": [
                        1,
                        1,
                        176,
                        176
                    ],
                    "dtype": "float32"
                },
                {
                    "name": "separable_conv_2_normal_right2_12/depthwise_kernel",
                    "shape": [
                        3,
                        3,
                        176,
                        1
                    ],
                    "dtype": "float32"
                },
                {
                    "name": "separable_conv_2_normal_right2_12/pointwise_kernel",
                    "shape": [
                        1,
                        1,
                        176,
                        176
                    ],
                    "dtype": "float32"
                },
                {
                    "name": "separable_conv_2_normal_right2_2/depthwise_kernel",
                    "shape": [
                        3,
                        3,
                        44,
                        1
                    ],
                    "dtype": "float32"
                },
                {
                    "name": "separable_conv_2_normal_right2_2/pointwise_kernel",
                    "shape": [
                        1,
                        1,
                        44,
                        44
                    ],
                    "dtype": "float32"
                },
                {
                    "name": "separable_conv_2_normal_right2_3/depthwise_kernel",
                    "shape": [
                        3,
                        3,
                        44,
                        1
                    ],
                    "dtype": "float32"
                },
                {
                    "name": "separable_conv_2_normal_right2_3/pointwise_kernel",
                    "shape": [
                        1,
                        1,
                        44,
                        44
                    ],
                    "dtype": "float32"
                },
                {
                    "name": "separable_conv_2_normal_right2_5/depthwise_kernel",
                    "shape": [
                        3,
                        3,
                        88,
                        1
                    ],
                    "dtype": "float32"
                },
                {
                    "name": "separable_conv_2_normal_right2_5/pointwise_kernel",
                    "shape": [
                        1,
                        1,
                        88,
                        88
                    ],
                    "dtype": "float32"
                },
                {
                    "name": "separable_conv_2_normal_right2_6/depthwise_kernel",
                    "shape": [
                        3,
                        3,
                        88,
                        1
                    ],
                    "dtype": "float32"
                },
                {
                    "name": "separable_conv_2_normal_right2_6/pointwise_kernel",
                    "shape": [
                        1,
                        1,
                        88,
                        88
                    ],
                    "dtype": "float32"
                },
                {
                    "name": "separable_conv_2_normal_right2_7/depthwise_kernel",
                    "shape": [
                        3,
                        3,
                        88,
                        1
                    ],
                    "dtype": "float32"
                },
                {
                    "name": "separable_conv_2_normal_right2_7/pointwise_kernel",
                    "shape": [
                        1,
                        1,
                        88,
                        88
                    ],
                    "dtype": "float32"
                },
                {
                    "name": "separable_conv_2_normal_right2_8/depthwise_kernel",
                    "shape": [
                        3,
                        3,
                        88,
                        1
                    ],
                    "dtype": "float32"
                },
                {
                    "name": "separable_conv_2_normal_right2_8/pointwise_kernel",
                    "shape": [
                        1,
                        1,
                        88,
                        88
                    ],
                    "dtype": "float32"
                },
                {
                    "name": "separable_conv_2_normal_right2_9/depthwise_kernel",
                    "shape": [
                        3,
                        3,
                        176,
                        1
                    ],
                    "dtype": "float32"
                },
                {
                    "name": "separable_conv_2_normal_right2_9/pointwise_kernel",
                    "shape": [
                        1,
                        1,
                        176,
                        176
                    ],
                    "dtype": "float32"
                },
                {
                    "name": "separable_conv_2_reduction_left1_reduce_4/depthwise_kernel",
                    "shape": [
                        5,
                        5,
                        88,
                        1
                    ],
                    "dtype": "float32"
                },
                {
                    "name": "separable_conv_2_reduction_left1_reduce_4/pointwise_kernel",
                    "shape": [
                        1,
                        1,
                        88,
                        88
                    ],
                    "dtype": "float32"
                },
                {
                    "name": "separable_conv_2_reduction_left1_reduce_8/depthwise_kernel",
                    "shape": [
                        5,
                        5,
                        176,
                        1
                    ],
                    "dtype": "float32"
                },
                {
                    "name": "separable_conv_2_reduction_left1_reduce_8/pointwise_kernel",
                    "shape": [
                        1,
                        1,
                        176,
                        176
                    ],
                    "dtype": "float32"
                },
                {
                    "name": "separable_conv_2_reduction_left1_stem_1/depthwise_kernel",
                    "shape": [
                        5,
                        5,
                        11,
                        1
                    ],
                    "dtype": "float32"
                },
                {
                    "name": "separable_conv_2_reduction_left1_stem_1/pointwise_kernel",
                    "shape": [
                        1,
                        1,
                        11,
                        11
                    ],
                    "dtype": "float32"
                },
                {
                    "name": "separable_conv_2_reduction_left1_stem_2/depthwise_kernel",
                    "shape": [
                        5,
                        5,
                        22,
                        1
                    ],
                    "dtype": "float32"
                },
                {
                    "name": "separable_conv_2_reduction_left1_stem_2/pointwise_kernel",
                    "shape": [
                        1,
                        1,
                        22,
                        22
                    ],
                    "dtype": "float32"
                },
                {
                    "name": "separable_conv_2_reduction_left4_reduce_4/depthwise_kernel",
                    "shape": [
                        3,
                        3,
                        88,
                        1
                    ],
                    "dtype": "float32"
                },
                {
                    "name": "separable_conv_2_reduction_left4_reduce_4/pointwise_kernel",
                    "shape": [
                        1,
                        1,
                        88,
                        88
                    ],
                    "dtype": "float32"
                },
                {
                    "name": "separable_conv_2_reduction_left4_reduce_8/depthwise_kernel",
                    "shape": [
                        3,
                        3,
                        176,
                        1
                    ],
                    "dtype": "float32"
                },
                {
                    "name": "separable_conv_2_reduction_left4_reduce_8/pointwise_kernel",
                    "shape": [
                        1,
                        1,
                        176,
                        176
                    ],
                    "dtype": "float32"
                },
                {
                    "name": "separable_conv_2_reduction_left4_stem_1/depthwise_kernel",
                    "shape": [
                        3,
                        3,
                        11,
                        1
                    ],
                    "dtype": "float32"
                },
                {
                    "name": "separable_conv_2_reduction_left4_stem_1/pointwise_kernel",
                    "shape": [
                        1,
                        1,
                        11,
                        11
                    ],
                    "dtype": "float32"
                },
                {
                    "name": "separable_conv_2_reduction_left4_stem_2/depthwise_kernel",
                    "shape": [
                        3,
                        3,
                        22,
                        1
                    ],
                    "dtype": "float32"
                },
                {
                    "name": "separable_conv_2_reduction_left4_stem_2/pointwise_kernel",
                    "shape": [
                        1,
                        1,
                        22,
                        22
                    ],
                    "dtype": "float32"
                },
                {
                    "name": "separable_conv_2_reduction_right1_reduce_4/depthwise_kernel",
                    "shape": [
                        7,
                        7,
                        88,
                        1
                    ],
                    "dtype": "float32"
                },
                {
                    "name": "separable_conv_2_reduction_right1_reduce_4/pointwise_kernel",
                    "shape": [
                        1,
                        1,
                        88,
                        88
                    ],
                    "dtype": "float32"
                },
                {
                    "name": "separable_conv_2_reduction_right1_reduce_8/depthwise_kernel",
                    "shape": [
                        7,
                        7,
                        176,
                        1
                    ],
                    "dtype": "float32"
                },
                {
                    "name": "separable_conv_2_reduction_right1_reduce_8/pointwise_kernel",
                    "shape": [
                        1,
                        1,
                        176,
                        176
                    ],
                    "dtype": "float32"
                },
                {
                    "name": "separable_conv_2_reduction_right1_stem_1/depthwise_kernel",
                    "shape": [
                        7,
                        7,
                        11,
                        1
                    ],
                    "dtype": "float32"
                },
                {
                    "name": "separable_conv_2_reduction_right1_stem_1/pointwise_kernel",
                    "shape": [
                        1,
                        1,
                        11,
                        11
                    ],
                    "dtype": "float32"
                },
                {
                    "name": "separable_conv_2_reduction_right1_stem_2/depthwise_kernel",
                    "shape": [
                        7,
                        7,
                        22,
                        1
                    ],
                    "dtype": "float32"
                },
                {
                    "name": "separable_conv_2_reduction_right1_stem_2/pointwise_kernel",
                    "shape": [
                        1,
                        1,
                        22,
                        22
                    ],
                    "dtype": "float32"
                },
                {
                    "name": "separable_conv_2_reduction_right2_reduce_4/depthwise_kernel",
                    "shape": [
                        7,
                        7,
                        88,
                        1
                    ],
                    "dtype": "float32"
                },
                {
                    "name": "separable_conv_2_reduction_right2_reduce_4/pointwise_kernel",
                    "shape": [
                        1,
                        1,
                        88,
                        88
                    ],
                    "dtype": "float32"
                },
                {
                    "name": "separable_conv_2_reduction_right2_reduce_8/depthwise_kernel",
                    "shape": [
                        7,
                        7,
                        176,
                        1
                    ],
                    "dtype": "float32"
                },
                {
                    "name": "separable_conv_2_reduction_right2_reduce_8/pointwise_kernel",
                    "shape": [
                        1,
                        1,
                        176,
                        176
                    ],
                    "dtype": "float32"
                },
                {
                    "name": "separable_conv_2_reduction_right2_stem_1/depthwise_kernel",
                    "shape": [
                        7,
                        7,
                        11,
                        1
                    ],
                    "dtype": "float32"
                },
                {
                    "name": "separable_conv_2_reduction_right2_stem_1/pointwise_kernel",
                    "shape": [
                        1,
                        1,
                        11,
                        11
                    ],
                    "dtype": "float32"
                },
                {
                    "name": "separable_conv_2_reduction_right2_stem_2/depthwise_kernel",
                    "shape": [
                        7,
                        7,
                        22,
                        1
                    ],
                    "dtype": "float32"
                },
                {
                    "name": "separable_conv_2_reduction_right2_stem_2/pointwise_kernel",
                    "shape": [
                        1,
                        1,
                        22,
                        22
                    ],
                    "dtype": "float32"
                },
                {
                    "name": "separable_conv_2_reduction_right3_reduce_4/depthwise_kernel",
                    "shape": [
                        5,
                        5,
                        88,
                        1
                    ],
                    "dtype": "float32"
                },
                {
                    "name": "separable_conv_2_reduction_right3_reduce_4/pointwise_kernel",
                    "shape": [
                        1,
                        1,
                        88,
                        88
                    ],
                    "dtype": "float32"
                },
                {
                    "name": "separable_conv_2_reduction_right3_reduce_8/depthwise_kernel",
                    "shape": [
                        5,
                        5,
                        176,
                        1
                    ],
                    "dtype": "float32"
                },
                {
                    "name": "separable_conv_2_reduction_right3_reduce_8/pointwise_kernel",
                    "shape": [
                        1,
                        1,
                        176,
                        176
                    ],
                    "dtype": "float32"
                },
                {
                    "name": "separable_conv_2_reduction_right3_stem_1/depthwise_kernel",
                    "shape": [
                        5,
                        5,
                        11,
                        1
                    ],
                    "dtype": "float32"
                },
                {
                    "name": "separable_conv_2_reduction_right3_stem_1/pointwise_kernel",
                    "shape": [
                        1,
                        1,
                        11,
                        11
                    ],
                    "dtype": "float32"
                },
                {
                    "name": "separable_conv_2_reduction_right3_stem_2/depthwise_kernel",
                    "shape": [
                        5,
                        5,
                        22,
                        1
                    ],
                    "dtype": "float32"
                },
                {
                    "name": "separable_conv_2_reduction_right3_stem_2/pointwise_kernel",
                    "shape": [
                        1,
                        1,
                        22,
                        22
                    ],
                    "dtype": "float32"
                },
                {
                    "name": "stem_bn1/gamma",
                    "shape": [
                        32
                    ],
                    "dtype": "float32"
                },
                {
                    "name": "stem_bn1/beta",
                    "shape": [
                        32
                    ],
                    "dtype": "float32"
                },
                {
                    "name": "stem_bn1/moving_mean",
                    "shape": [
                        32
                    ],
                    "dtype": "float32"
                },
                {
                    "name": "stem_bn1/moving_variance",
                    "shape": [
                        32
                    ],
                    "dtype": "float32"
                },
                {
                    "name": "stem_conv1/kernel",
                    "shape": [
                        3,
                        3,
                        3,
                        32
                    ],
                    "dtype": "float32"
                }
            ]
        }
    ]
}